model/98520multi_model_linear4.pth (torch, 845767 bytes, 24 tensors)

input.weight f4 [128, 12]
00000000: d337 8bbe 27eb 97bd ceec aabd 933d 2cbe
00000010: 5168 dabd 6bca 333b 927e aabe c0b9 ff3c
00000020: 09e9 a9be cd6f ddbe 32dd 3b3d ef9b 70be
00000030: 3368 ca3c 58a1 3b3d 44fe 88be c57e 62be
00000040: dff6 003e a5d7 e4bd 77c0 afbe e3cf a7bd
00000050: c021 e03c 76ec 2cbe 3adf 51be acc6 fcbd
00000060: d9d9 81bf 55e0 8dbf c286 83bf 1930 6ebf
00000070: e13b 2dbf 72cd 8abf 1fae 41bf 75f1 26bf
00000080: 957f 26bf 0def 5abf 458c 46bf 21ea 8abf
00000090: 8464 45bc baac e0be c44e b3be d861 b1be
000000a0: 628c efbe 3d48 ffbd 6632 263b f19a d0be
000000b0: bff3 04bf 2304 233d 709f 6f3c d6f7 48be
000000c0: e08d b0be f0da 9dbe 5af3 2abc f10f d1be
000000d0: 1302 66be f60d 53be f918 c1bc f5d3 f2bd
000000e0: 6e5f b5be 875d 99be 6c73 e1bd cbbb f1bc
000000f0: 4108 50bf b711 26bf 5e6c 41bf fbaf e1be
00000100: 9f77 57bf b840 03bf 693c eebe 8753 10bf
00000110: f215 efbe 4bf1 1bbf e8cf 51bf a007 3abf
00000120: de7c bcbe 8ea7 5dbe 59b6 9abe 9d56 9cbe
00000130: 729c 84bd 5342 74be 0672 6bbe 5bbf b1be
00000140: 0841 8bbe 4f71 ddbd 351c 7a3d 2636 5abe
00000150: ffb5 d23d 764e 903d 6d59 17be 438e adbd
00000160: 029d 203e cbc2 8ebe 1ddc 603e ce86 8dbe
00000170: 3f64 833e 834b d23d c45b 84bd a577 7cbe
00000180: a63a 28be f7ae 983c 5768 35be 6c3a bdbe
00000190: 2a04 9abe 46f5 e4ba deaf 62be 7c27 a9be
000001a0: a047 a93d 78e2 2bbe e22b 84be 9a57 ba3d
000001b0: 6224 40bf 9ec8 4dbf c37a c0be 48ef 1abf
000001c0: 486d dbbe 4bd5 c5be 94b3 b7be 95f0 b7be
000001d0: d065 0bbf aa0d b9be 618c 30bf 9797 28bf
000001e0: 26c6 efbc 3b1d 9abd b850 303e a517 0c3e
000001f0: bfd9 f8bd 4905 7ebe 8c9b 543e 842b 833e
00000200: 760d 19be d533 78be bb23 9f3d 58cb 92be
00000210: 082d 83bf 8ec5 a9be db61 81bf 8526 c1be
00000220: 5659 13bf 9171 10bf 79cb 48bf 5f73 1d3f
00000230: 8bd9 b43e 33c4 7ebf af5b 58bf d775 24bf
00000240: 7827 8dbd 2656 83be a7a3 92be e4e9 bfbd
00000250: 1323 653e 95f6 84be b2e6 92be 60c0 233e
00000260: af8d 603e 4f14 4d3e 06bc 85bd 6d7e 6abe
00000270: 636b 1ebd b3fa 43be 6240 32be 40a3 debd
00000280: b603 b8be ba27 cd3d e155 e1bd 444f 74be
00000290: 2d57 74bd 845a 81be e6f4 1dbd cccd 20bc
000002a0: 0303 aebe 1acf aebc c4c0 6dbe 4a84 a2be
000002b0: bcce a6be 45ca febd 8e02 e2be 53b4 673c
000002c0: 87c5 7abe 3c68 d5be 2d63 f9bd 22cb 0abd
000002d0: 03fe 933c 9ec7 f8bd 433c 413e 9cde 5ebe
000002e0: 89ec 7ebd 2a11 213d 607f fb3d 3479 5f3c
000002f0: 23eb 27be fa0d 8fbc f603 49be 6c9e 713d
00000300: bbc7 e9be a260 09be 60b4 713d c303 74be
00000310: b9fe b73b f615 87be 1c6a 28bd 7b3c d3be
00000320: cf41 c6be c3b0 d2be aa34 8ebe 6a2d 6d3b
00000330: 9441 83be 6079 9dbd 4375 863d 5aa9 393c
00000340: 794f ae3c 8391 25be 846a 8fbd befe 513d
00000350: 464d 3b3e 4757 56be 4210 93be a05b 88bd
00000360: fedb 7cbe 00e6 e6bd 5e94 c3be dafb 4bbe
00000370: e9e3 18be 0fec 4d3d 554b 7ebc 4e63 7fbe
00000380: 8ceb b3be 29e9 b93c 6b85 4fbe fb69 093e
00000390: 4623 a9bf c225 5ebf 8e4d 99bf 9da4 66bf
000003a0: 1dae 90bf 3f06 8fbf 51ca b6bd 2bb2 8abe
000003b0: 45d9 77be 80b7 a3bf 79e9 50bf c2c7 6fbf
000003c0: 6bbf 59be 699b 8bbd 48a2 7dbd 7cb0 57be
000003d0: 0258 5fbe f7ef 13bd 006a a1be 45e1 67be
000003e0: 8eaa c4bd ada8 ccbe 595b c2bd 0008 60be
000003f0: 5e46 d4be b71b f63c c7a8 acbd a991 e63b
-0.27191028 -0.074178986 -0.08345948 -0.16820364 -0.10664428 0.0027433883 -0.3329969 0.031216502
-0.33185604 -0.4324936 0.045865245 -0.23496984 0.02470789 0.045808166 -0.2675649 -0.22118671
0.12594174 -0.111739434 -0.34326527 -0.08193948 0.027359843 -0.16887078 -0.2049531 -0.12342581
-1.0144607 -1.1084086 -1.02755 -0.9304214 -0.6766949 -1.0843947 -0.7565631 -0.65212184
-0.65038425 -0.8552101 -0.77557784 -1.08527 -0.012047891 -0.4388178 -0.3502103 -0.3464496
-0.4678679 -0.1246495 0.002535963 -0.4074321 -0.5193443 0.039798867 0.014625415 -0.19625792
-0.34483242 -0.308311 -0.010433996 -0.40832475 -0.22461729 -0.20610794 -0.023571478 -0.11856834
-0.3542437 -0.29954168 -0.11008343 -0.029508492 -0.81262594 -0.6487078 -0.7555598 -0.44079575
-0.841669 -0.5127063 -0.46530464 -0.5637745 -0.4669643 -0.6091506 -0.81957865 -0.72667885
-0.36814016 -0.21645948 -0.30217245 -0.3053483 -0.06475152 -0.23853426 -0.22992715 -0.34716305
-0.27198052 -0.108126275 0.061062057 -0.21309718 0.10288619 0.07046215 -0.14780207 -0.084744
0.15684894 -0.2788299 0.21958967 -0.2764191 0.2566242 0.10268309 -0.064628154 -0.24655016
-0.16428623 0.018638117 -0.17715584 -0.36958635 -0.30081302 -0.0017468117 -0.221374 -0.33037937
0.082656145 -0.1678561 -0.2581473 0.0909874 -0.75055516 -0.8038424 -0.3759366 -0.60521364
-0.42856812 -0.38639292 -0.35879195 -0.35925737 -0.5445223 -0.36143237 -0.689642 -0.6585631
-0.02926929 -0.075251065 0.17218292 0.13680895 -0.12150907 -0.24806704 0.20762461 0.25619137
-0.14946541 -0.24238522 0.07770487 -0.28670764 -1.0248117 -0.33158535 -1.0107988 -0.377247
-0.5755819 -0.5642329 -0.78435475 0.6150417 0.35322222 -0.99518126 -0.845149 -0.6424231
-0.06892294 -0.25651664 -0.28640482 -0.09370783 0.22376661 -0.25969377 -0.28691632 0.15991354
0.21929048 0.20027278 -0.06530003 -0.2289979 -0.03867663 -0.19138603 -0.17407373 -0.10870981
-0.3594033 0.10017343 -0.11002708 -0.23858362 -0.05965345 -0.2526437 -0.03856363 -0.009814691
-0.33986673 -0.021338988 -0.23218066 -0.31741554 -0.325796 -0.124409236 -0.44142574 0.014142114
-0.24489413 -0.41681087 -0.121771194 -0.03388513 0.018065458 -0.12147449 0.18870644 -0.21764606
-0.062237296 0.03932301 0.12280154 0.013639737 -0.16398291 -0.01746272 -0.19630417 0.058988973
-0.45660195 -0.13415769 0.05900991 -0.2382956 0.005615082 -0.26383942 -0.04111682 -0.4125708
-0.38722083 -0.41150483 -0.27774554 0.00361904 -0.2563597 -0.07689166 0.06565335 0.01133188
0.02127813 -0.1616879 -0.07002738 0.05126833 0.18291196 -0.20931731 -0.2872334 -0.06658101
-0.24693295 -0.11274338 -0.38199133 -0.19920292 -0.14930691 0.05027395 -0.01552089 -0.24940225
-0.35140646 0.022694187 -0.20265739 0.13419335 -1.321389 -0.86776364 -1.1976793 -0.9009493
-1.1303135 -1.1173781 -0.089253075 -0.27089056 -0.24203975 -1.2790375 -0.8160625 -0.9366418
-0.21264426 -0.068167515 -0.06192234 -0.21063417 -0.21810916 -0.03611752 -0.31526184 -0.22644527
-0.09602843 -0.3997244 -0.094900794 -0.21878052 -0.41459936 0.030042512 -0.08430629 0.007036407

input.bias f4 [128]
00000000: 82b8 153d 61e8 cfbe 51c3 5cbf 111b fbbd
00000010: 5a26 c3bd b1f3 09bf 1243 4ebe 030b 54bd
00000020: 1c09 30be 9110 9cbe f001 3d3e b85a 04bf
00000030: 7020 3cbe ff12 5bbe a682 88be a5c3 2a3e
00000040: e55f 8cbd 1d1e 8fbe 6b81 7abd 4f44 83bf
00000050: 3a2c 14bd cdd2 a9be 7ed4 cb3f 6d1b 46bf
00000060: 2a75 31be 9c46 8fbe 36b3 793e d24d b6bc
00000070: e261 c3be 7817 f8be 1f68 a4be f6af 84bf
00000080: 6e1b b5be 6521 9ebf 8ee3 92be 0aef dbbe
00000090: 4d38 6fbd d60d e9be 3830 b6be 659c 12be
000000a0: 683b 9c3d 96ed 47bf 7a10 2dbf 24a3 bdbe
000000b0: 3e31 8bbe f079 9cbe 459e 23be 8c1f 3cbe
000000c0: 3a99 3cbe ac6d 3a3d 0070 7dbf 9802 febd
000000d0: 13ed 0e3c de7f 09bf 0e43 803e ebfe b5bd
000000e0: 365e e2be 92ef cfbe c4e8 70bd bc35 453e
000000f0: 0113 dbbe 21f5 08be b88b b839 9e85 41be
00000100: 0842 b03c 4191 023e 958a d5be 96d6 80be
00000110: 3553 66be 7861 2cbf 08fb fabe ff35 85be
00000120: 12b6 863d 44d1 03be c28b 423e ca00 aebd
00000130: df9d 583d ee6f a2bd 8d97 f63c ae9d f2bd
00000140: 95f7 81be 094d 60bf 0611 8ebb 05af 33be
00000150: c6be 5cbd cbe2 99bf cf01 d7bd 3792 c9be
00000160: 6cec febd a268 31bf 116d c4be 6069 9dbe
00000170: 5aa5 843e 826a e6be da83 57bf f3bf c6bd
00000180: 5744 90bd 7961 b5be 66b5 7bbe 896c 30bf
00000190: a3f4 e63d 4832 57be 7751 0ebe 2c78 c3be
000001a0: bc02 1cbe 5271 e0be e998 e0be b250 92be
000001b0: 6c43 edbe 8b13 04bf 007b 3abd 0bbf 40bd
000001c0: 71f2 88bd 4ce7 113e ad65 dfbe dfe7 81bf
000001d0: 278d e93d 1d90 fbbc 8310 01bf 4afa 45bc
000001e0: fea6 e5be fed1 84be b274 71bf 3abb 4abe
000001f0: c022 78be ec4b b9be 120b a9bc d114 b6be
0.036552913 -0.4060698 -0.8623553 -0.12261022 -0.09528799 -0.5388747 -0.20142773 -0.051768314
-0.17190975 -0.3048139 0.1845777 -0.51700926 -0.18371749 -0.21393965 -0.26662177 0.16676195
-0.06854228 -0.27952662 -0.06115858 -1.0255221 -0.03617499 -0.3316864 1.5924222 -0.773856
-0.17329851 -0.27983558 0.2438477 -0.022253904 -0.38160616 -0.48455405 -0.32110688 -1.0366199
-0.3537249 -1.2353941 -0.28689235 -0.4295581 -0.058403302 -0.45518368 -0.35583663 -0.14317472
0.07628518 -0.780969 -0.67603266 -0.3703853 -0.27186006 -0.3056178 -0.15978344 -0.18371409
-0.18417826 0.045514748 -0.98999023 -0.124028385 0.008723515 -0.53710735 0.2505116 -0.08886512
-0.44212502 -0.40612465 -0.058815733 0.1925878 -0.42787936 -0.1337476 0.00035199313 -0.18898627
0.021515861 0.12750722 -0.41707292 -0.25163716 -0.22492678 -0.67336226 -0.49019647 -0.26017758
0.06577696 -0.12872797 0.18998626 -0.08496244 0.052884933 -0.07931505 0.030101562 -0.11846481
-0.25384203 -0.87617546 -0.0043355254 -0.17547233 -0.053892873 -1.2022337 -0.10498392 -0.39369366
-0.12447438 -0.6930028 -0.3836446 -0.30744457 0.25907403 -0.45003134 -0.84185565 -0.0970458
-0.07044285 -0.35425928 -0.24580917 -0.6891561 0.112771295 -0.21015275 -0.13898264 -0.3817762
-0.15235418 -0.43836457 -0.4386666 -0.2857719 -0.463405 -0.5159232 -0.04552746 -0.047057193
-0.06686867 0.14248389 -0.4363226 -1.0148886 0.11403876 -0.030708367 -0.5041582 -0.012083599
-0.44853967 -0.2594146 -0.9431869 -0.19797984 -0.24232006 -0.36190736 -0.020635162 -0.35562757

hidden1.weight f4 [256, 128]
00000000: bd11 25bd 2dc4 333d 3852 943b b96a 9cbd
00000010: e463 20bd 992f 9c3f 0ecc 2dbd 0749 2bbd
00000020: 7c87 25bd 990a 63bd 0f1d 783c 4d56 73bf
00000030: c852 8e3c e76e 233e ae2d 6b3d a5dc 5ebc
00000040: 47dd 6c3c ac2b d93c 4c51 2cbd 2148 28bf
00000050: c531 d13c d60e 84bd 4d98 73bf 9eba a33d
00000060: 8cfa 6abc 58e6 0e3c 003d 963d fb74 d3bc
00000070: 1041 013d 1504 5cbd 9ac9 e13c 207d 82bf
00000080: 1fd8 8abd 2586 81bf 334a 9cbc ce90 6a3f
00000090: 4643 9e3b a49d b23d 47bb 323d fefe e43e
000000a0: d016 b3bd 41b7 aabd 4500 61bf bd93 9d3d
000000b0: f1b2 35bd 063e 293c 6544 c9bc 730d 853d
000000c0: e2ab 943d 3594 90bd 41fc 6c3f 2f23 6bbd
000000d0: bc4a 613d d14d 4cbf 53f9 9e3d e77e 463d
000000e0: ac0c b23d 41bf af3d 97d3 9ebc bdf7 313d
000000f0: 629d 533f 1a22 a93d 4f12 223d 9c27 ddbc
00000100: 6a6b 2a3d 6169 42bd d8a3 77bd 9191 61bc
00000110: 55f7 0dbd 3f6e 88bd ba86 dbba 3b3b 24bd
00000120: 378c 09bd 826c 37bd c80b 2cbd e15c ae3d
00000130: 7955 81bd 5327 95bd 4fc4 c23b d122 b0bd
00000140: 1e2d 90bb f9be 81bf 79e0 263c 12df 46bc
00000150: 9106 3dbd 3bf9 03bd a493 84bd 455a 7abd
00000160: e609 5f3c a474 5fbf 8412 8d3d 6be7 80bd
00000170: eef2 123d b4f5 0cbd c0f2 66bf 9540 b13d
00000180: b461 70bd 44da a63c f614 93bd 59cb 423d
00000190: 5687 a93d ea40 21bd 2120 243d 6d81 96bd
000001a0: a8ab 3abd 88fc 363d 9e34 17bb 18c9 ccbc
000001b0: be9e 4f3c f728 95bd 36d4 613c cc8d 07be
000001c0: 171a 063d 8fe3 2a3d 57b9 a5bd 670a 453d
000001d0: 1e4b e6bb cbc3 a23d 8cd5 3e3f f996 233c
000001e0: dba5 10bd 1884 863d 3dc5 3b3d de72 233c
000001f0: 42c6 c13c 11ee b23d fdcb 4a3d 5b4b f33c
00000200: ce8a 49be 9069 dd3d 398a 6b3f d522 a2bd
00000210: 9281 9cbd cf81 35bd 9b45 153e ca3f b2bc
00000220: d166 7abe 8141 3b3f a686 8ebd fa80 613f
00000230: 6509 82bc f8f7 24be 8c62 5bbe 0aea 05bc
00000240: d8ac 353c ab85 d6bc 7138 e4bd 7e5e e3bd
00000250: b012 3abe deb7 29be 71fa 03bf f45b 4bbf
00000260: ed02 24be 4ccf 4bbd 5044 af3d 6fda 71bd
00000270: 0aaf 2dbd 8ced 6fbc 8ed8 8a3c c52e 653d
00000280: 942e 7fbd e6b1 a1bc b627 70be 8fdf 393d
00000290: e358 803c abfc 3bbe 53ce b0bd 3a1a acbd
000002a0: 5abd 2c3d bbca 5cbf 8fde 60bf e6db b0bd
000002b0: c14c 6fbe e9d3 afbd 0cae aabd 9e66 98bd
000002c0: a126 bdbd 9d12 163c af32 23bd f201 acbc
000002d0: 2783 4dbe 8777 5cbf e004 883d 9ee7 91bd
000002e0: 5c45 92bd d059 40be 5945 a73d ef07 d23c
000002f0: 1dd6 fa3c c7d8 3a3e a282 94bd 4551 5fbe
00000300: 5006 39be 2dff 043e 568b adbd 6cd2 0bbe
00000310: 3e30 2fbe b0e6 9dbd 2f9f 953d 590f c4bd
00000320: 3162 2abc 6cae 57bd d443 ab3d 6baf 51be
00000330: 82f5 403d 61ea 3cbe 36a7 92bd e038 183c
00000340: 2414 a5bd 8b1f 723d 315e 7e3d 449b 0dbe
00000350: 8f55 79be 9d64 673f 9ad0 05be 443d eb3d
00000360: 5b81 383e aa8e 6f3d 3237 09bd cde6 b13c
00000370: 0847 3bbc fd5f 203d 7c5a 84bd 8ef9 993c
00000380: f407 423b 723a 6a3d 2d79 51bd 31d0 e0bc
00000390: 78f8 b1bd 9af2 9c3b cbdc 6dbe a03a 60be
000003a0: 51b9 89bd 47e8 08be 9dff 0dbe b3ba aebd
000003b0: 415e 92bf ccd2 04be 283c 093d 6695 4ebc
000003c0: 782d 52be 98c0 a3bd 7f6a be3d dc86 7a3f
000003d0: 55f8 0bbe 4cc3 99bd 6f5c 823b b0d8 6dbe
000003e0: d6e7 24be 422e 23be 3cdd f0bc e742 a93d
000003f0: 4285 a7bd 87c5 5fbd 8f54 9f3d f604 fdbd
-0.04030012 0.04388826 0.004526403 -0.07637543 -0.039157763 1.2202026 -0.04243093 -0.04181769
-0.04041241 -0.05543003 0.015143647 -0.9505356 0.017373458 0.15960275 0.05741661 -0.01360241
0.0144570535 0.026510082 -0.04206972 -0.6573506 0.025536427 -0.06448142 -0.9515427 0.07994579
-0.014341962 0.00872191 0.073358536 -0.025812617 0.03155619 -0.05371483 0.027561951 -1.0194435
-0.06779503 -1.0119063 -0.01907835 0.91627204 0.004829797 0.08721474 0.043635633 0.44725794
-0.087445855 -0.08335734 -0.87891036 0.076941945 -0.044360105 0.010329729 -0.024568746 0.06496706
0.072593465 -0.07059518 0.9257241 -0.0574066 0.055002913 -0.7980624 0.077623986 0.048460867
0.08693823 0.08581401 -0.019388003 0.043449152 0.8266202 0.082584575 0.03956824 -0.026996426
0.041606344 -0.04746378 -0.060458988 -0.013767616 -0.034659702 -0.06661653 -0.0016748526 -0.04009555
-0.033580985 -0.044781215 -0.042003423 0.08513809 -0.06315131 -0.07282891 0.005943812 -0.08600391
-0.0043999096 -1.0136405 0.010185354 -0.012138145 -0.04614884 -0.032220107 -0.06473473 -0.061121244
0.0136132 -0.87287354 0.06888297 -0.062941395 0.035876207 -0.03441401 -0.9021416 0.08654896
-0.058686927 0.020367749 -0.07181732 0.04755721 0.082777664 -0.039368547 0.040069703 -0.07348905
-0.04557386 0.044674426 -0.0023072134 -0.024998233 0.012672124 -0.07283204 0.013783505 -0.13237685
0.032739725 0.041720923 -0.080919914 0.048105624 -0.0070279976 0.07947501 0.74544597 0.009984725
-0.035314422 0.06568164 0.045842398 0.009976117 0.023654107 0.08736814 0.049510945 0.029699018
-0.19681856 0.1081115 0.92007786 -0.079168 -0.07641901 -0.04431325 0.14577334 -0.021758933
-0.24453284 0.73146826 -0.06959276 0.8808743 -0.01587362 -0.16110218 -0.21424311 -0.008173475
0.011088572 -0.026186785 -0.11143578 -0.11102007 -0.18171191 -0.16574046 -0.5155402 -0.79437184
-0.16016741 -0.04975824 0.085579515 -0.059046205 -0.04240326 -0.014644038 0.016948964 0.055952806
-0.06230028 -0.019738149 -0.23452649 0.045379218 0.015667384 -0.18358104 -0.08633103 -0.0840344
0.042172767 -0.8624684 -0.878396 -0.08635692 -0.23369123 -0.085853405 -0.08333978 -0.07441448
-0.092358835 0.009159711 -0.039843258 -0.020997021 -0.20069562 -0.86119884 0.06641555 -0.071242556
-0.071421355 -0.18784261 0.08167524 0.025638549 0.030619675 0.18246756 -0.07251479 -0.21808346
-0.18068814 0.12987967 -0.08473842 -0.13654488 -0.17108247 -0.07710016 0.073057525 -0.0957324
-0.010399387 -0.052656576 0.083625466 -0.20477073 0.047109134 -0.18448783 -0.07160799 0.009290904
-0.08060482 0.059112113 0.062101547 -0.1382876 -0.24349044 0.903879 -0.13067856 0.11486295
0.18018095 0.058485664 -0.033499904 0.0217165 -0.011430509 0.03915404 -0.06462571 0.018795755
0.0029606791 0.057184644 -0.051140953 -0.027443023 -0.0868997 0.0047896625 -0.23228757 -0.21897364
-0.067247994 -0.13369857 -0.1386704 -0.08531704 -1.1435014 -0.12971038 0.033504635 -0.012608862
-0.20525157 -0.07995719 0.09297656 0.9786203 -0.1366895 -0.07507953 0.003978304 -0.23227191
-0.16104063 -0.15935615 -0.029402368 0.08264714 -0.08179714 -0.054631736 0.077798 -0.12354462

hidden1.bias f4 [256]
00000000: 3312 58bf dc65 55bf 74ea 3c3f dcbe 4abf
00000010: 5c80 e8bf d7f3 bf3f 56a2 633f 4b63 c4bf
00000020: f962 5a3f e931 a6bf 926b dd3e 1c64 dcbf
00000030: c1f9 4a3f 8257 21c0 2f3f 4e3e 1d22 a9bf
00000040: 93d6 a5bf 1a4f 73c0 686a 2040 cb21 a93f
00000050: e9ca c93f ad6b 843e 786d 16c0 3348 91bf
00000060: 4e39 823f 0490 eabf 7878 24be f31f 4abf
00000070: 91db 95bf 0084 3f3f 7024 11c0 1a44 2cc0
00000080: 38fa 353f 83ee cabf 101c 2c3f 68fc 97bf
00000090: 94b3 853f 7212 9abf bf5c 99bf 90c0 1ac0
000000a0: b968 0d40 4364 3ec0 b31c 0cc0 2005 3a3e
000000b0: 8c0f 64bf ba00 cfbf ce51 17bf 17a9 75bf
000000c0: 0d19 77bf 563a 19c0 dfbc 82be 2d60 183f
000000d0: f428 aebc 0b52 75be faf6 59c0 640b 983e
000000e0: 9c57 33c0 c9fd 373f 5b1d 1ac0 b1f1 14c0
000000f0: 4772 24bf 6313 d3bf af35 963d 7539 b3be
00000100: cb9e e93e 898e 843f 0859 d5bf 5b2a 98bf
00000110: 94f7 14be 42a1 f9bf 5758 4fbf 1db5 35bf
00000120: 56f1 4a3f be40 443f 1956 883f 579a 963f
00000130: d22b c73f c8c3 4dbf ac90 3ebf 8068 0ac0
00000140: 2abc 46bf 166b 47be f680 0ec0 c91d 80bf
00000150: 78d4 b0bf c15b 113e 5774 e3bf ec71 d1bf
00000160: 6f95 893e 8f71 383f 0737 2f3f 8807 3ac0
00000170: e55e ef3e d426 51be f7da b6bf e708 20bf
00000180: 495c 80bf 90d5 20c0 8bc4 fbbf 5e48 25c0
00000190: ef7e e63e 1e77 4c40 66af 8dbf e675 9ebe
000001a0: d919 a13f 1c6d 993f 786d 1abf fbc3 4cc0
000001b0: 7fa2 b2bf 13b0 983e 5109 2ec0 289e ccbf
000001c0: f105 bdbf af91 42bf 5ba1 b0bf e0de 2a40
000001d0: e0f8 30c0 a40f 523e 3729 583f 95b8 0c3f
000001e0: 5aed 71bf 325c a83f e8fa 7a3e b699 603f
000001f0: d987 f8bf 7dfd e6be d2a6 1940 70d4 02c0
00000200: fdb2 94bf f724 f83e e904 8c3e d4b3 873f
00000210: 0e75 7fbf 8593 533f f6a5 553e 74f9 033e
00000220: 7879 cabe 7e2c 1a3f ed75 91bf 2491 083f
00000230: cad5 4f3e 591c 33c0 cfd5 e73f 5d72 1a3f
00000240: 01ea 07c0 f97e d3bc 16f7 b8bf 999d 16be
00000250: 8e84 373f d11e b0bf 844a e7bf 41af b73e
00000260: a8b0 7cbf cdf6 7fbf 7a6a f8bf 4301 733f
00000270: 8bb2 cebf 55e9 8cbf 299a c5bf 6b11 c6bf
00000280: 68a3 2b40 9438 43be fcc8 10c0 dd42 41bf
00000290: 0d28 24c0 f5cb 943d 6c7f 7abf bc99 21bf
000002a0: f63b 33c0 10e0 a83f 5152 8cbf de88 03c0
000002b0: 38fd 74bf fcbc 23c0 eb66 0cc0 6d63 173f
000002c0: 6a20 983f c875 b8bf 89a1 6d3f 8634 88bf
000002d0: d6b6 57be 60b3 c3bf 97ef 353f 7ddf 43bf
000002e0: 1e88 15c0 5e41 903f 5d45 143f e56b c0bf
000002f0: 83ae 7dbf e51b c63e 4e7d 803f 0b46 1bc0
00000300: c486 333f 4c67 17c0 8012 7cbf 43fe 1bbd
00000310: ace2 0bc0 5d6f 0ebf 925f 74be 22e3 32c0
00000320: 0331 0d3f e6d3 0e3f 9a92 71bf d6d6 90bf
00000330: e6da 133f 46c4 f2be 588b cb3f 256c 04bf
00000340: c73c aabb 7790 42bd 0393 373f 1144 19c0
00000350: 91f6 85be cb38 3a3d 0ef0 b0bf 2e5a 91be
00000360: ad9c 053f 679b f4be 0238 213f 85df 8d3f
00000370: a8ae 97be cac3 e0bf a104 9e3f f6ef cfbf
00000380: 8116 033f b19b 8f3f 1716 c7bf af55 c2bf
00000390: f862 273f 4ea3 113f d730 8dbe ab06 cdbe
000003a0: fd93 6cbf 6218 53bf 5ef5 dd3e 1052 e03f
000003b0: a8fa 96bf b3c8 9dbf 60df 4f3f 10c3 31c0
000003c0: a4e3 7a3e 45fe 303f 4347 9ebe 3be4 313e
000003d0: 1eb4 aabe bb20 35c0 2bbd 463f 6bf5 78bb
000003e0: 1980 6abf a653 92bf c09e 413f c0c2 e03f
000003f0: efb5 0fc0 7021 74bf c6ca 00c0 14dc 233e
-0.8440277 -0.8335855 0.7379525 -0.7919748 -1.8164172 1.4996289 0.8891958 -1.5342802
0.8530727 -1.2983981 0.43246132 -1.7218051 0.79287344 -2.520966 0.2014129 -1.3213536
-1.2956108 -3.801703 2.5064945 1.3213438 1.5765048 0.258634 -2.3504314 -1.1350158
1.0173738 -1.83252 -0.1606158 -0.78955 -1.1707631 0.7481079 -2.267849 -2.6916566
0.7108493 -1.5854038 0.6723032 -1.1873903 1.0445428 -1.2036879 -1.1981429 -2.418003
2.2095168 -2.9748695 -2.1892517 0.18166018 -0.8908622 -1.6172097 -0.591092 -0.95961136
-0.965226 -2.3941855 -0.25534722 0.5952175 -0.021259762 -0.23957078 -3.4056993 0.2969619
-2.8022223 0.7187162 -2.4080417 -2.3272517 -0.64236873 -1.6490291 0.07334458 -0.35004774
0.45628962 1.0355998 -1.6667795 -1.1887926 -0.14547569 -1.9502337 -0.8099417 -0.7097948
0.792745 0.7666129 1.0651275 1.1765851 1.5560248 -0.80376863 -0.744395 -2.1626282
-0.77630866 -0.19474444 -2.2266212 -1.000909 -1.381484 0.14195158 -1.7769879 -1.6362891
0.2687182 0.72048277 0.6844334 -2.9067097 0.46752086 -0.20424968 -1.4285573 -0.62513584
-1.0028163 -2.5130348 -1.9669355 -2.582542 0.45018718 3.1947703 -1.1069152 -0.30949324
1.2586013 1.1986423 -0.60323286 -3.1994617 -1.395584 0.29821834 -2.7193186 -1.5985765
-1.4767438 -0.76003546 -1.3799242 2.6698532 -2.7651901 0.20513779 0.8443789 0.5496915
-0.94502795 1.3153136 0.24509776 0.87734544 -1.9416457 -0.4511527 2.400807 -2.0442162
-1.1617123 0.48465702 0.27347496 1.0601754 -0.99787986 0.8264697 0.2086409 0.12888128
-0.39545798 0.6022414 -1.1364113 0.53346467 0.20296398 -2.7986052 1.8112124 0.60330755
-2.1236575 -0.025817381 -1.4450405 -0.14708556 0.7168664 -1.3759404 -1.8069615 0.35875896
-0.98707056 -0.99985963 -1.9407494 0.949238 -1.6148237 -1.1008707 -1.5437671 -1.5474066
2.6818485 -0.19064552 -2.262267 -0.7549265 -2.5649445 0.07265464 -0.9785068 -0.63125205
-2.8005347 1.3193378 -1.0962621 -2.0552287 -0.9569888 -2.5584097 -2.1937816 0.59136087
1.1884892 -1.4410944 0.9282461 -1.0641029 -0.2106584 -1.5289116 0.7106871 -0.7651289
-2.336433 1.1269948 0.5791834 -1.5032927 -0.9909441 0.38693157 1.003824 -2.42615
0.7012751 -2.3656797 -0.9846573 -0.03808428 -2.18571 -0.55638677 -0.23864582 -2.795113
0.5515291 0.5579208 -0.9436432 -1.1315563 0.5775589 -0.4741537 1.5901899 -0.51727515
-0.0051952335 -0.047501054 0.717087 -2.3947794 -0.26164678 0.04546432 -1.3823259 -0.28389114
0.52192193 -0.47774813 0.62976086 1.1083838 -0.2962544 -1.755975 1.2345163 -1.6245105
0.51206213 1.1219388 -1.5553616 -1.5182399 0.6538539 0.5688981 -0.27576324 -0.4004415
-0.9241331 -0.8245908 0.43351263 1.7525043 -1.1795244 -1.2326874 0.8120022 -2.7775307
0.245009 0.69137985 -0.30913743 0.1737222 -0.33340544 -2.8301227 0.776324 -0.0037988077
-0.9160171 -1.1431777 0.7563286 1.7559433 -2.2454793 -0.9536352 -2.0123763 0.16001922

hidden2.weight f4 [128, 256]
00000000: b095 95bc b001 fbbb 8a3f 3bbd 267d 5dbe
00000010: 9d0f 24be 9877 57be 2ad7 2c3d 9002 04be
00000020: 1dbc 72be e092 19bb 48a6 103d 2052 76bb
00000030: 40c6 dabc 1015 cabb 887f 4ebd 2e32 6abe
00000040: a853 73be c5ce f6bd 8c9c 923c 7349 70be
00000050: e0cd 523b aefb 13be 2a5c 08be 844e 70be
00000060: 76f5 6abd 0081 ab3c 7090 a9bb 7bf6 3cbe
00000070: a04e d63b c8ed d63c 88f5 ca3c f052 b93b
00000080: 6a54 5bbd 8e6e 7f3d 584a 293c b00d 5abe
00000090: a4d4 6d3d fb9d f7bd 7726 5abe 825c 50be
000000a0: 98ba 723c d833 bf3c 2072 2dbc d087 50be
000000b0: 7048 da3b 2cdb 213d dccb 74bd 1707 08be
000000c0: 005c 4abe 53f7 39be 50fd ad3b 8b62 4cbe
000000d0: 2f85 3fbe 406d 51be c3c3 0fbe d020 c53c
000000e0: daee 58be 5653 3fbd 955f 22be b648 61bd
000000f0: 4e1f 58be d40a 39be e304 59be e21b 5dbe
00000100: 74ca 44bd 4efd 54be f851 5b3c d847 653c
00000110: 1f63 14be c4e1 11be 88ed 22be c422 7a3d
00000120: 284f 6abd e057 c13c ecbc 32bd e810 1f3d
00000130: 9892 6f3d 4096 7b3d 4f15 0ebe 6212 2fbe
00000140: 50e3 9dbc 0c3b 9abc 9bc7 2dbe be28 6e3d
00000150: ad31 16be f51c 4dbe db2d 11be 8c8e 38be
00000160: a860 68be 1a8d 33be 8492 b03c 3df7 66be
00000170: 0ee5 3cbe ccb2 3cbe 36d9 1abe 1b7b 31be
00000180: 6f20 26be e55b 68be ccb3 983c a042 d93b
00000190: 98fd 043d c4f0 5f3d 3e91 183d 3cbe 15be
000001a0: 3022 ea3b 7024 413c 9303 25be 1f66 4bbe
000001b0: 0371 25be 40cb 5e3b eadc 2bbe 80f5 2abe
000001c0: a04c 39bc f84f 43be dd58 19be da41 11be
000001d0: 8e5e 08be 44ea 42be bd6b 34be 687b 673c
000001e0: 51d6 53be fcd1 6f3d ca68 fdbd 4c12 e2bc
000001f0: e0ff 413b 64e5 1bbd eae0 0ebe 645d f73c
00000200: b608 2fbe 284c 6a3c ca2d 25be 44fb 5ebe
00000210: 2a5f 2b3d 344e bb3c aee7 56be aaa6 62bd
00000220: 6e09 17bd 58b2 ec3c 7f0a 40be 7f62 3ebe
00000230: c48d 65be 8cc3 44be e622 403d c1cf 65be
00000240: 1b31 60be 5eab 5cbd 7938 2cbe 509d 36bd
00000250: 58d7 2cbc c0c7 f03b 5b44 25be a0a7 05bb
00000260: 32c5 1ebe eafd 28bd 7271 5cbe 7076 eebb
00000270: e485 28bd f3d4 37be fd49 6ebe a9cf 1fbe
00000280: 783e 2dbd ba9e 24be 9be2 2fbe 4083 a0bc
00000290: 51e1 08be 1832 2a3d f2c0 f8bd f0a2 233c
000002a0: a92b 2cbe 9c7a 3e3d de58 18be 5cf9 f7bc
000002b0: 0081 65ba 14a4 f8bc b644 3bbe 8bb8 52be
000002c0: c0eb 4fbb 8264 00be 6682 1fbe dc86 9f3c
000002d0: 647a a6bc 94ef 7ebd 8277 52be cb7c 4bbe
000002e0: aef7 5ebe ae8f 7b3d 0ad2 26be 58fc 233c
000002f0: 9c68 21bd a9e2 5fbe 50f0 98bc 97f9 49be
00000300: 58d0 653c d5ae 1bbe b5c0 20be eebf 1ebe
00000310: 84da 6d3d ae0d 02be 3ce9 203d e09f 71be
00000320: 68af 9c3c 007b 12ba 9877 9bbc 8265 33bd
00000330: 6005 eebc 09da 5cbe 98f6 37bd b476 4ebe
00000340: b0ab 69be 4c10 43bd 7c3b 593d a8f9 29be
00000350: 6017 ffbd e7c8 6fbe 305b 93bb c0c9 e13b
00000360: 304c d73c 9c59 39be 38e0 1cbe 98a8 babc
00000370: 800e 94bb 8425 6abe 70e5 67bc f060 3fbc
00000380: 08a1 4ebc 8472 0a3d b6a1 4fbd e84b 543c
00000390: 3849 993c 920c 3bbe a955 1bbe 76b1 6abd
000003a0: e57e 77be cea5 17be d06b 253c 0223 00be
000003b0: 2435 1fbe 38b0 66be 261f 133d 779c 2abe
000003c0: 306e 37bc 9ae1 163d 290b 4ebe c43d e6bc
000003d0: 4404 e3bc cd5e 58be 2058 03bb 3010 a13b
000003e0: 4760 33be c000 5e3b f0fc d2bc 04da 89bc
000003f0: 4833 013c 490a 5fbe c7fe 0dbe f2ab 0bbe
-0.018259853 -0.0076601133 -0.045714892 -0.21629772 -0.16021581 -0.21041715 0.042197384 -0.12891603
-0.23704572 -0.0023433492 0.03531483 -0.0037585571 -0.026705861 -0.0061670616 -0.050414592 -0.22870705
-0.23762381 -0.12051157 0.017896913 -0.23465519 0.0032166168 -0.14451477 -0.13316408 -0.23467451
-0.057362996 0.020935535 -0.005174689 -0.184534 0.0065401345 0.02623643 0.024775282 0.005655639
-0.0535473 0.062361293 0.010332666 -0.21294284 0.058064118 -0.12090679 -0.21303736 -0.20347789
0.014814995 0.02334015 -0.010586292 -0.20364308 0.0066614673 0.03951566 -0.059764728 -0.13283955
-0.19761658 -0.18160753 0.005309738 -0.19959466 -0.1870315 -0.20451832 -0.14039521 0.024063498
-0.21184865 -0.046710335 -0.15856774 -0.055000983 -0.21105692 -0.18070537 -0.2119327 -0.21592668
-0.048044637 -0.20799753 0.013386242 0.01399418 -0.14490937 -0.14246279 -0.15910923 0.06106831
-0.057204396 0.023601472 -0.0436372 0.038834482 0.058489412 0.061422586 -0.13875316 -0.17096856
-0.01927343 -0.018826984 -0.16970675 0.058144324 -0.14667387 -0.20030577 -0.14177649 -0.18023127
-0.22693121 -0.17534295 0.02155424 -0.22555251 -0.18446752 -0.1842758 -0.15121922 -0.17332117
-0.1622331 -0.22691305 0.018640421 0.006630257 0.03246841 0.05467297 0.03724789 -0.1462335
0.0071451887 0.0117884725 -0.16114645 -0.19863175 -0.16156392 0.0033995658 -0.16783491 -0.16695213
-0.011309773 -0.19073474 -0.14975305 -0.14185277 -0.1331732 -0.19034678 -0.17619224 0.014128543
-0.20687224 0.058549866 -0.123735026 -0.027596615 0.0029601976 -0.03806056 -0.13952985 0.0301959
-0.17093167 0.014300384 -0.16130748 -0.21775538 0.041838802 0.022864439 -0.20986816 -0.055334724
-0.036874227 0.028893635 -0.18754004 -0.18592261 -0.2241736 -0.1921522 0.04690828 -0.22442533
-0.21893732 -0.053874366 -0.16818418 -0.04458362 -0.010549389 0.007348031 -0.16139357 -0.0020394102
-0.15504912 -0.041257776 -0.21527651 -0.0072773024 -0.041143313 -0.17952327 -0.23270412 -0.1560656
-0.042295903 -0.16076174 -0.17176287 -0.019593835 -0.13367201 0.04155168 -0.121461764 0.009987578
-0.1681353 0.04650365 -0.1487765 -0.030270271 -0.0008754879 -0.030351676 -0.1828793 -0.2057821
-0.0031726211 -0.1253834 -0.15577087 0.019473486 -0.020322032 -0.0622402 -0.20553401 -0.19871823
-0.2177417 0.06141632 -0.16291061 0.010008894 -0.039406404 -0.21863808 -0.018669277 -0.19724117
0.014026724 -0.15203412 -0.15698512 -0.15502903 0.05806972 -0.12700531 0.03928493 -0.23596144
0.019126609 -0.00055877864 -0.018977925 -0.043797977 -0.029055297 -0.21567549 -0.044912905 -0.20162469
-0.228194 -0.047622964 0.053035244 -0.16599143 -0.1245563 -0.23416482 -0.0044969544 0.0068905056
0.026281446 -0.1810059 -0.15319908 -0.02278547 -0.00451833 -0.22865874 -0.014153823 -0.011680827
-0.012611635 0.033800617 -0.05069133 0.012957551 0.018711671 -0.18266514 -0.15169396 -0.057298146
-0.241695 -0.14809343 0.010096505 -0.12513354 -0.15547615 -0.2252816 0.035918377 -0.16661249
-0.011195704 0.036836244 -0.20121445 -0.028105624 -0.027711995 -0.21129914 -0.002004154 0.00491526
-0.17517196 0.0033874959 -0.025755376 -0.01682759 0.007885762 -0.21781267 -0.13866721 -0.1363981

hidden2.bias f4 [128]
00000000: 02d2 3abe 3b77 1abe 589d 7cbe 098c 86bf
00000010: a5d6 97be e5c5 90bf 76e4 08be 3dbc 0fbe
00000020: f673 91be a7a3 a1bf 04e6 22be 9c12 98be
00000030: ec16 92be 3f99 27be 579c 6bbf ae37 73be
00000040: 8598 22be 4a22 dfbe 8b34 0bbe d189 33be
00000050: 8757 bdbd f551 f7bd a71f 09bf cfaa 4cbe
00000060: 3e8f 8ebf b3f7 4fbe 0fd6 bcbd b2c1 afbd
00000070: 9d65 7bbf cb68 96be 6dbe 42be c10c 31be
00000080: bfd6 00bf 4798 20be 6529 8bbd 416e 87be
00000090: 8afa 48be a275 62bd 785c ffbd 2f0d 5fbe
000000a0: 7975 0ebe 32db debf 26a0 23be 145e 6cbc
000000b0: dd69 08be 0b5b 4cbe 46ae 3dbe e351 18bf
000000c0: 5962 04be bc8f 84bf c3a1 a1be 1a14 88bf
000000d0: 3fd5 85bf d244 47be 4bd8 83be 176f e2be
000000e0: fd19 85be f212 59be cd19 39be ae6a 28be
000000f0: 7dca 7ebf 6078 81bf b7a2 4cbf 8e73 6abe
00000100: 776f 80bf c7ee 89be b304 71bf c3e0 25be
00000110: 30b3 7cbf 097e 18be dec6 81bf f91d 01be
00000120: fcf1 01be 87d9 7dbe 0466 01be bf28 dcbf
00000130: 1ea7 1ebe 39b1 4abe 1047 5abe 70f6 55be
00000140: 6819 92bf 482d 0abe f51d e6bd 614c cbbf
00000150: 2c48 8abf 31a5 8ebf 6a7b f9bd f284 10be
00000160: fab6 5abe f79e 69bf 6bb6 57be b2b7 d8bd
00000170: cf89 49be f993 fdbd 61bb b3bf fbf8 4dbf
00000180: 43b5 0cc0 2d9c 40bf 1a9a 46be c22e 0cbf
00000190: c6c5 61be c251 52be 9c71 42bf 9d69 42bf
000001a0: faa7 80bf 082c 3ebe c18f 3abe c3c8 e8bd
000001b0: 29da 14be a355 78be c354 81be 5ebb 51be
000001c0: 0b91 91bf c153 64be eb8c 06be 9081 87bf
000001d0: eff4 47be a3b1 3dbf b4f9 5cbe c81e 68be
000001e0: fb6a 8abe 1d9a 06be 82f9 bfbd 49b6 84bf
000001f0: 2347 a0bd ed8d 4cbe d882 87bf cf5d b6bc
-0.18244174 -0.15084545 -0.24669397 -1.0511485 -0.29655948 -1.1310393 -0.13368401 -0.14036651
-0.28408784 -1.2628068 -0.15908056 -0.29701698 -0.28533113 -0.16367052 -0.9203543 -0.23751709
-0.15878494 -0.43580848 -0.13594262 -0.17533042 -0.0924521 -0.12076179 -0.5356392 -0.19987033
-1.1137464 -0.20309334 -0.09220516 -0.08581866 -0.98201925 -0.29376826 -0.19017954 -0.17290021
-0.50327677 -0.15683089 -0.06795005 -0.26451305 -0.19626823 -0.055287965 -0.12468809 -0.21782373
-0.13912 -1.7410643 -0.1597906 -0.014426727 -0.13321634 -0.19956605 -0.18523511 -0.5949995
-0.12928142 -1.0356364 -0.31568727 -1.0631135 -1.0455703 -0.19459847 -0.25750956 -0.4422538
-0.2599639 -0.21198633 -0.18076248 -0.16446945 -0.9952772 -1.011486 -0.79935783 -0.22895643
-1.0034016 -0.26939985 -0.94147795 -0.16199021 -0.9871092 -0.14891829 -1.0138814 -0.1260909
-0.12689966 -0.24790011 -0.12636572 -1.7199935 -0.15493438 -0.19794168 -0.2131617 -0.2089479
-1.1414003 -0.13493836 -0.112361826 -1.5882684 -1.0803275 -1.1144162 -0.121817425 -0.14113215
-0.21358863 -0.91258186 -0.2106568 -0.10581912 -0.19681476 -0.12381739 -1.4041559 -0.8045804
-2.1985633 -0.75238305 -0.19394723 -0.54758847 -0.22048101 -0.20539 -0.75954604 -0.75942403
-1.0051262 -0.18571484 -0.182189 -0.11366417 -0.14536346 -0.24251418 -0.2525998 -0.20481631
-1.1372389 -0.22297575 -0.13139693 -1.0586414 -0.19527029 -0.7409918 -0.21579629 -0.22667992
-0.27034745 -0.13144727 -0.09373762 -1.0368129 -0.07826068 -0.19976015 -1.0586805 -0.022261528

output.weight f4 [16, 128]
00000000: e5f0 353e 50b4 653e 2c70 a0bc a19a 1cbe
00000010: a7c4 003d 4873 31be 4528 6a3e dc7d 29be
00000020: 0160 993c e68e 933e 9396 6f3d e569 0f3e
00000030: fba9 6fbd 4bc1 05be a847 02be 9634 843d
00000040: 4184 bc3d a54f 11be c719 343e 517d 6d3e
00000050: a01e 89bd a510 dabd 8f6f bebe 66ad 993c
00000060: 65eb 12be 56a2 f2bd 1d75 a63d f71f 7d3e
00000070: 718c 22bf f76f b73b 5ea3 3dbe de74 ee3d
00000080: bca0 46be 8c7c 043e 60a7 823e 358a e33c
00000090: 0c91 003e f6e9 bebd d0cf ffbe d286 e33d
000000a0: 5838 72be 1741 d4be 40d8 863e 873d 1c3c
000000b0: 50f3 c1bd 9efb 86bd 769c 273e a844 1c3e
000000c0: 9542 693e 31f6 b83d 8a3d 083e f153 1bbe
000000d0: 81f1 6a3c c9f3 aebd a667 503e e9b7 dabd
000000e0: 0f1d 2e3e 1d02 633e d70d 803e 680c 343e
000000f0: 5c3b 483e de32 893f 3fcc febe 2adc 4f3e
00000100: 79e6 553f 8717 603e 2f3b 0a3c 7477 1c3e
00000110: 1b28 5a3d dc7c 2cbe 1138 b4bd f4bd 6e3e
00000120: a65d 5e3e ebad 60be 4aa3 a1bd a2a3 d93e
00000130: 3b0d b53d daeb 8bbc 3c71 d43d f0cd 143e
00000140: fee7 3dbe 5d3c afbd 5e98 16be 181f 2bbf
00000150: 382b ae3c 7b78 35be d3d6 6f3e 61de 703e
00000160: 4e78 6fbe 1438 ff3d ec94 873e 3e7d 3cbd
00000170: 2a9a 1d3e f077 48be 1d72 a33e 5c9f 0dbd
00000180: 2506 3f3d 64e6 5e3d a425 933d 5345 0e3f
00000190: 842f 023e f6d8 773e ceb2 373f e9c6 ecbe
000001a0: 705e 593f 374c 643e c576 fe3d f624 0ebe
000001b0: bcb2 2d3e 8a81 9d3d 56ca 14be 4c36 48be
000001c0: fe96 a4bd b054 1e3e 63c6 25be 668c 3e3f
000001d0: f74e 3dbd 0408 1a3e 19dd 3e3e 1443 2a3d
000001e0: 739b 583e 4f39 20bd d0d0 bfbd 421a 863e
000001f0: a58b b7bd 3367 fbbd d316 493d 488a e6bc
00000200: c99d 86be bdc8 08be 4a0a 75be 37cb 2a3e
00000210: b4c5 28be aaf2 cc3d cd06 4fbe 2a29 323e
00000220: 0112 4fbe e614 8c3e 602b d73d 4907 28be
00000230: 85c9 31be 9fcf 0ebe f6fe 743d 807f 00be
00000240: 2d4a 2dbe 9534 5c3e c54f cd3d 29b7 9bbd
00000250: e255 54bd de5f 3f3e 1d70 393e f811 a7bd
00000260: 5209 4b3e 2c01 e0bd 03e9 f6bd 12b4 38bc
00000270: fab2 37bf 6cd0 2cbe 712f 773d 79e4 dcbd
00000280: acfd 823d 49bf 093b ce9e 55be 8dc3 dcbd
00000290: d23b 87be 992d 003e 4a7f 8dbe e6ff 2fbe
000002a0: 3f92 c33d 3590 01bf aa69 42be 9c32 993c
000002b0: e75c 033e 487d 64be 5d6b 26be ece4 b3bd
000002c0: e700 d8bd 52a5 d33d 04c6 1ebe 4e30 5bbf
000002d0: c1f8 6c3f 1e48 213e f732 49be b276 203e
000002e0: ea67 9e3d e725 02be 6cda a33e ebc9 e3bd
000002f0: 2203 483d 4ea6 8e3f 932d 22bf 26a6 54be
00000300: 2afc 41bf 5f28 88be 48d5 263e 743f 2abe
00000310: 1739 0b3e 5f5d 0e3e 3439 353e 0201 873d
00000320: 0acb 3e3e 5f2d 333e ef7b b4be 4a8d ddbf
00000330: 0041 df3d df74 cebd 85b8 03be cd97 d9bd
00000340: ba08 1d3e 50b3 703e 5169 e73d c91a 043f
00000350: 30ca 143e 334d 5c3e d90d 0f3e 7854 6f3e
00000360: 1be0 cdbd db72 123e ee7f 53be fbad 9c3d
00000370: 1cb0 0abe d0e2 463e de5b ca3e 41cd 4a3e
00000380: c111 6c3f 6c41 90bd ce70 78be 76c4 a4be
00000390: 550c 61be 814b 52be b456 433f 65fb dbbe
000003a0: 2a7a 7e3f f371 52be e77a 74be b229 113d
000003b0: e6d9 d3bd a2d8 0cbe 7b6c 483e 6cb9 113e
000003c0: 3b20 3a3e c041 4ebe 5371 303e bb40 4ebf
000003d0: cfc8 c8bd d9fd aabd 1d60 4dbe 4fdf 7bbe
000003e0: 04c4 bb3d 1fe5 f73d 9e55 4b3e 0bbe fd3d
000003f0: 65a0 9f3d 31ce 563e 96bc 383e cca9 273e
0.17767675 0.22432065 -0.019584738 -0.15293361 0.031437542 -0.17329133 0.22866924 -0.16551918
0.018722536 0.2881996 0.05849321 0.1400524 -0.058511715 -0.13062017 -0.12722647 0.064553425
0.09204913 -0.14190538 0.17587958 0.23192336 -0.066952944 -0.10647706 -0.37194487 0.01875944
-0.14347608 -0.118473694 0.08127806 0.24719225 -0.63495547 0.005598064 -0.18519351 0.116433844
-0.19397253 0.12938136 0.25518322 0.027775863 0.12555331 -0.09321968 -0.49963236 0.11109699
-0.23654306 -0.4145591 0.2633686 0.009536154 -0.09470236 -0.06590961 0.16368279 0.15260565
0.22779305 0.09031332 0.13304725 -0.1516874 0.014339806 -0.08542592 0.20352039 -0.10679609
0.17003272 0.22168775 0.2501056 0.17582858 0.19553894 1.0718648 -0.49765202 0.2029883
0.835548 0.21883975 0.008436962 0.15279943 0.053260904 -0.16844505 -0.08799756 0.23314649
0.21715412 -0.21941344 -0.07892473 0.42507654 0.08840414 -0.017080236 0.1037316 0.14531684
-0.18545529 -0.08556435 -0.14706561 -0.6684432 0.021260843 -0.17721741 0.23421793 0.23522331
-0.23385736 0.12461868 0.26480806 -0.046017878 0.1539084 -0.19577003 0.31923 -0.034575805
0.04663672 0.054418936 0.07184914 0.5557453 0.12713438 0.24203858 0.7175721 -0.46245506
0.84909725 0.22294699 0.12424997 -0.13881287 0.16962713 0.07690723 -0.1453031 -0.19551963
-0.08036612 0.15461993 -0.1618896 0.7443298 -0.046217885 0.1504212 0.1863903 0.041567877
0.21153049 -0.039117154 -0.09366 0.26191908 -0.08962182 -0.12275543 0.049094032 -0.02814211
-0.26292256 -0.13357826 -0.23929706 0.16679083 -0.16481668 0.10007222 -0.20217438 0.17398515
-0.20221712 0.27359694 0.1050632 -0.16409029 -0.1736203 -0.13946389 0.059813462 -0.12548637
-0.16922827 0.21504433 0.100249805 -0.076032944 -0.051839717 0.18688914 0.18109174 -0.08157724
0.19827774 -0.109377235 -0.12056162 -0.011273401 -0.7175747 -0.16876382 0.060347978 -0.10785765
0.0639604 0.0021018556 -0.2086136 -0.10779486 -0.26412827 0.12517394 -0.27636176 -0.17187461
0.095493786 -0.5061067 -0.1898562 0.01870089 0.12828408 -0.22313416 -0.16251893 -0.08783898
-0.10547047 0.10334267 -0.15505224 -0.8562058 0.9256707 0.15750167 -0.19648348 0.15670279
0.07734664 -0.12709771 0.3200258 -0.11122497 0.048831113 1.1144502 -0.6335079 -0.20766506
-0.75775397 -0.265933 0.16292298 -0.16625768 0.13595997 0.13902806 0.17697603 0.06591989
0.18632141 0.17497776 -0.35250804 -1.7308743 0.1090107 -0.10080885 -0.12863357 -0.10624657
0.1533536 0.23505902 0.112993844 0.5160337 0.14530253 0.21513824 0.13970126 0.23372066
-0.1005251 0.14301626 -0.2065427 0.07650372 -0.13543743 0.1942246 0.39523214 0.1980486
0.9221459 -0.07043728 -0.24261782 -0.32181138 -0.2197736 -0.20536615 0.76304173 -0.42965236
0.9940516 -0.2055128 -0.23875009 0.035440154 -0.10344295 -0.13754514 0.19572632 0.14230889
0.18176357 -0.20142269 0.1723073 -0.8056752 -0.09803926 -0.08349199 -0.20056196 -0.24596904
0.091682464 0.12104248 0.19856879 0.123897634 0.07794265 0.20977093 0.1804069 0.16373366

output.bias f4 [16]
00000000: 2bad 92c3 b78d 92c3 237d 92c3 2d55 92c3
00000010: 2d76 92c3 6a99 92c3 9e59 92c3 4e80 92c3
00000020: 3654 94c3 1c70 92c3 4729 92c3 902c 93c3
00000030: 594b 92c3 009a 92c3 7cdf 92c3 63a7 92c3
-293.35287 -293.10715 -292.97763 -292.66544 -292.92325 -293.19855 -292.70013 -293.00238
-296.6579 -292.87585 -292.32248 -294.34814 -292.58865 -293.20312 -293.74597 -293.3077

exp_avg f4 [128, 12]
00000000: 0400 0000 0400 0000 0400 0000 0400 0000
00000010: 0400 0000 0400 0000 0400 0000 0400 0000
00000020: 0400 0000 0400 0000 0400 0000 0400 0000
00000030: 0400 0000 0400 0000 0400 0000 0400 0000
00000040: 0400 0000 0400 0000 0400 0000 0400 0000
00000050: 0400 0000 0400 0000 0400 0000 0400 0000
00000060: 0400 0000 0400 0000 0400 0000 0400 0000
00000070: 0400 0000 0400 0000 0400 0000 0400 0000
00000080: 0400 0000 0400 0000 0400 0000 0400 0000
00000090: 0400 0000 0400 0000 0400 0000 0400 0000
000000a0: 0400 0000 0400 0000 0400 0000 0400 0000
000000b0: 0400 0000 0400 0000 0400 0000 0400 0000
000000c0: 0400 0000 0400 0000 0400 0000 0400 0000
000000d0: 0400 0000 0400 0000 0400 0000 0400 0000
000000e0: 0400 0000 0400 0000 0400 0000 0400 0000
000000f0: 0400 0000 0400 0000 0400 0000 0400 0000
00000100: 0400 0000 0400 0000 0400 0000 0400 0000
00000110: 0400 0000 0400 0000 0400 0000 0400 0000
00000120: 0400 0000 0400 0000 0400 0000 0400 0000
00000130: 0400 0000 0400 0000 0400 0000 0400 0000
00000140: 0400 0000 0400 0000 0400 0000 0400 0000
00000150: 0000 0000 0000 0000 0000 0000 0000 0000
00000160: 0000 0000 0000 0000 0000 0000 0000 0000
00000170: 0000 0000 0000 0000 0000 0000 0000 0000
00000180: 0400 0000 0400 0000 0400 0000 0400 0000
00000190: 0400 0000 0400 0000 0400 0000 0400 0000
000001a0: 0400 0000 0400 0000 0400 0000 0400 0000
000001b0: 0400 0000 0400 0000 0400 0000 0400 0000
000001c0: 0400 0000 0400 0000 0400 0000 0400 0000
000001d0: 0400 0000 0400 0000 0400 0000 0400 0000
000001e0: 0000 0000 0000 0000 0000 0000 0000 0000
000001f0: 0000 0000 0000 0000 0000 0000 0000 0000
00000200: 0000 0000 0000 0000 0000 0000 0000 0000
00000210: 0400 0000 0400 0000 0400 0000 0400 0000
00000220: 0400 0000 0400 0000 0400 0000 0400 0080
00000230: 0400 0000 0400 0000 0400 0000 0400 0000
00000240: 0000 0000 0000 0000 0000 0000 0000 0000
00000250: 0000 0000 0000 0000 0000 0000 0000 0000
00000260: 0000 0000 0000 0000 0000 0000 0000 0000
00000270: 0400 0000 0400 0000 0400 0000 0400 0000
00000280: 0400 0000 0400 0000 0400 0000 0400 0000
00000290: 0400 0000 0400 0000 0400 0000 0400 0000
000002a0: 0400 0000 0400 0000 0400 0000 0400 0000
000002b0: 0400 0000 0400 0000 0400 0000 0400 0000
000002c0: 0400 0000 0400 0000 0400 0000 0400 0000
000002d0: 0000 0000 0000 0000 0000 0000 0000 0000
000002e0: 0000 0000 0000 0000 0000 0000 0000 0000
000002f0: 0000 0000 0000 0000 0000 0000 0000 0000
00000300: 0400 0000 0400 0000 0400 0000 0400 0000
00000310: 0400 0000 0400 0000 0400 0000 0400 0000
00000320: 0400 0000 0400 0000 0400 0000 0400 0000
00000330: 0000 0000 0000 0000 0000 0000 0000 0000
00000340: 0000 0000 0000 0000 0000 0000 0000 0000
00000350: 0000 0000 0000 0000 0000 0000 0000 0000
00000360: 0400 0000 0400 0000 0400 0000 0400 0000
00000370: 0400 0000 0400 0000 0400 0000 0400 0000
00000380: 0400 0000 0400 0000 0400 0000 0400 0000
00000390: 0400 0000 0400 0000 0400 0000 0400 0000
000003a0: 0400 0000 0400 0000 0400 0000 0400 0080
000003b0: 0400 0000 0400 0000 0400 0000 0400 0000
000003c0: 0400 0000 0400 0000 0400 0000 0400 0000
000003d0: 0400 0000 0400 0000 0400 0000 0400 0000
000003e0: 0400 0000 0400 0000 0400 0000 0400 0000
000003f0: 0400 0000 0400 0000 0400 0000 0400 0000
6e-45 6e-45 6e-45 6e-45 6e-45 6e-45 6e-45 6e-45
6e-45 6e-45 6e-45 6e-45 6e-45 6e-45 6e-45 6e-45
6e-45 6e-45 6e-45 6e-45 6e-45 6e-45 6e-45 6e-45
6e-45 6e-45 6e-45 6e-45 6e-45 6e-45 6e-45 6e-45
6e-45 6e-45 6e-45 6e-45 6e-45 6e-45 6e-45 6e-45
6e-45 6e-45 6e-45 6e-45 6e-45 6e-45 6e-45 6e-45
6e-45 6e-45 6e-45 6e-45 6e-45 6e-45 6e-45 6e-45
6e-45 6e-45 6e-45 6e-45 6e-45 6e-45 6e-45 6e-45
6e-45 6e-45 6e-45 6e-45 6e-45 6e-45 6e-45 6e-45
6e-45 6e-45 6e-45 6e-45 6e-45 6e-45 6e-45 6e-45
6e-45 6e-45 6e-45 6e-45 0.0 0.0 0.0 0.0
0.0 0.0 0.0 0.0 0.0 0.0 0.0 0.0
6e-45 6e-45 6e-45 6e-45 6e-45 6e-45 6e-45 6e-45
6e-45 6e-45 6e-45 6e-45 6e-45 6e-45 6e-45 6e-45
6e-45 6e-45 6e-45 6e-45 6e-45 6e-45 6e-45 6e-45
0.0 0.0 0.0 0.0 0.0 0.0 0.0 0.0
0.0 0.0 0.0 0.0 6e-45 6e-45 6e-45 6e-45
6e-45 6e-45 6e-45 -6e-45 6e-45 6e-45 6e-45 6e-45
0.0 0.0 0.0 0.0 0.0 0.0 0.0 0.0
0.0 0.0 0.0 0.0 6e-45 6e-45 6e-45 6e-45
6e-45 6e-45 6e-45 6e-45 6e-45 6e-45 6e-45 6e-45
6e-45 6e-45 6e-45 6e-45 6e-45 6e-45 6e-45 6e-45
6e-45 6e-45 6e-45 6e-45 0.0 0.0 0.0 0.0
0.0 0.0 0.0 0.0 0.0 0.0 0.0 0.0
6e-45 6e-45 6e-45 6e-45 6e-45 6e-45 6e-45 6e-45
6e-45 6e-45 6e-45 6e-45 0.0 0.0 0.0 0.0
0.0 0.0 0.0 0.0 0.0 0.0 0.0 0.0
6e-45 6e-45 6e-45 6e-45 6e-45 6e-45 6e-45 6e-45
6e-45 6e-45 6e-45 6e-45 6e-45 6e-45 6e-45 6e-45
6e-45 6e-45 6e-45 -6e-45 6e-45 6e-45 6e-45 6e-45
6e-45 6e-45 6e-45 6e-45 6e-45 6e-45 6e-45 6e-45
6e-45 6e-45 6e-45 6e-45 6e-45 6e-45 6e-45 6e-45

exp_avg_sq f4 [128, 12]
00000000: f401 0000 f401 0000 f401 0000 f401 0000
00000010: f401 0000 f401 0000 f401 0000 f401 0000
00000020: f401 0000 f401 0000 f401 0000 f401 0000
00000030: f401 0000 f401 0000 f401 0000 f401 0000
00000040: f401 0000 f401 0000 f401 0000 f401 0000
00000050: f401 0000 f401 0000 f401 0000 f401 0000
00000060: f401 0000 f401 0000 f401 0000 f401 0000
00000070: f401 0000 f401 0000 f401 0000 f401 0000
00000080: f401 0000 f401 0000 f401 0000 f401 0000
00000090: f401 0000 f401 0000 f401 0000 f401 0000
000000a0: f401 0000 f401 0000 f401 0000 f401 0000
000000b0: f401 0000 f401 0000 f401 0000 f401 0000
000000c0: f401 0000 f401 0000 f401 0000 f401 0000
000000d0: f401 0000 f401 0000 f401 0000 f401 0000
000000e0: f401 0000 f401 0000 f401 0000 f401 0000
000000f0: f401 0000 f401 0000 f401 0000 f401 0000
00000100: f401 0000 f401 0000 f401 0000 f401 0000
00000110: f401 0000 f401 0000 f401 0000 f401 0000
00000120: f401 0000 f401 0000 f401 0000 f401 0000
00000130: f401 0000 f401 0000 f401 0000 f401 0000
00000140: f401 0000 f401 0000 f401 0000 f401 0000
00000150: 0000 0000 0000 0000 0000 0000 0000 0000
00000160: 0000 0000 0000 0000 0000 0000 0000 0000
00000170: 0000 0000 0000 0000 0000 0000 0000 0000
00000180: f401 0000 f401 0000 f401 0000 f401 0000
00000190: f401 0000 f401 0000 f401 0000 f401 0000
000001a0: f401 0000 f401 0000 f401 0000 f401 0000
000001b0: f401 0000 f401 0000 f401 0000 f401 0000
000001c0: f401 0000 f401 0000 f401 0000 f401 0000
000001d0: f401 0000 f401 0000 f401 0000 f401 0000
000001e0: 0000 0000 0000 0000 0000 0000 0000 0000
000001f0: 0000 0000 0000 0000 0000 0000 0000 0000
00000200: 0000 0000 0000 0000 0000 0000 0000 0000
00000210: f401 0000 f401 0000 f401 0000 f401 0000
00000220: f401 0000 f401 0000 f401 0000 f401 0000
00000230: f401 0000 f401 0000 f401 0000 f401 0000
00000240: 0000 0000 0000 0000 0000 0000 0000 0000
00000250: 0000 0000 0000 0000 0000 0000 0000 0000
00000260: 0000 0000 0000 0000 0000 0000 0000 0000
00000270: f401 0000 f401 0000 f401 0000 f401 0000
00000280: f401 0000 f401 0000 f401 0000 f401 0000
00000290: f401 0000 f401 0000 f401 0000 f401 0000
000002a0: f401 0000 f401 0000 f401 0000 f401 0000
000002b0: f401 0000 f401 0000 f401 0000 f401 0000
000002c0: f401 0000 f401 0000 f401 0000 f401 0000
000002d0: 0000 0000 0000 0000 0000 0000 0000 0000
000002e0: 0000 0000 0000 0000 0000 0000 0000 0000
000002f0: 0000 0000 0000 0000 0000 0000 0000 0000
00000300: f401 0000 f401 0000 f401 0000 f401 0000
00000310: f401 0000 f401 0000 f401 0000 f401 0000
00000320: f401 0000 f401 0000 f401 0000 f401 0000
00000330: 0000 0000 0000 0000 0000 0000 0000 0000
00000340: 0000 0000 0000 0000 0000 0000 0000 0000
00000350: 0000 0000 0000 0000 0000 0000 0000 0000
00000360: f401 0000 f401 0000 f401 0000 f401 0000
00000370: f401 0000 f401 0000 f401 0000 f401 0000
00000380: f401 0000 f401 0000 f401 0000 f401 0000
00000390: f401 0000 f401 0000 f401 0000 f401 0000
000003a0: f401 0000 f401 0000 f401 0000 f401 0000
000003b0: f401 0000 f401 0000 f401 0000 f401 0000
000003c0: f401 0000 f401 0000 f401 0000 f401 0000
000003d0: f401 0000 f401 0000 f401 0000 f401 0000
000003e0: f401 0000 f401 0000 f401 0000 f401 0000
000003f0: f401 0000 f401 0000 f401 0000 f401 0000
7e-43 7e-43 7e-43 7e-43 7e-43 7e-43 7e-43 7e-43
7e-43 7e-43 7e-43 7e-43 7e-43 7e-43 7e-43 7e-43
7e-43 7e-43 7e-43 7e-43 7e-43 7e-43 7e-43 7e-43
7e-43 7e-43 7e-43 7e-43 7e-43 7e-43 7e-43 7e-43
7e-43 7e-43 7e-43 7e-43 7e-43 7e-43 7e-43 7e-43
7e-43 7e-43 7e-43 7e-43 7e-43 7e-43 7e-43 7e-43
7e-43 7e-43 7e-43 7e-43 7e-43 7e-43 7e-43 7e-43
7e-43 7e-43 7e-43 7e-43 7e-43 7e-43 7e-43 7e-43
7e-43 7e-43 7e-43 7e-43 7e-43 7e-43 7e-43 7e-43
7e-43 7e-43 7e-43 7e-43 7e-43 7e-43 7e-43 7e-43
7e-43 7e-43 7e-43 7e-43 0.0 0.0 0.0 0.0
0.0 0.0 0.0 0.0 0.0 0.0 0.0 0.0
7e-43 7e-43 7e-43 7e-43 7e-43 7e-43 7e-43 7e-43
7e-43 7e-43 7e-43 7e-43 7e-43 7e-43 7e-43 7e-43
7e-43 7e-43 7e-43 7e-43 7e-43 7e-43 7e-43 7e-43
0.0 0.0 0.0 0.0 0.0 0.0 0.0 0.0
0.0 0.0 0.0 0.0 7e-43 7e-43 7e-43 7e-43
7e-43 7e-43 7e-43 7e-43 7e-43 7e-43 7e-43 7e-43
0.0 0.0 0.0 0.0 0.0 0.0 0.0 0.0
0.0 0.0 0.0 0.0 7e-43 7e-43 7e-43 7e-43
7e-43 7e-43 7e-43 7e-43 7e-43 7e-43 7e-43 7e-43
7e-43 7e-43 7e-43 7e-43 7e-43 7e-43 7e-43 7e-43
7e-43 7e-43 7e-43 7e-43 0.0 0.0 0.0 0.0
0.0 0.0 0.0 0.0 0.0 0.0 0.0 0.0
7e-43 7e-43 7e-43 7e-43 7e-43 7e-43 7e-43 7e-43
7e-43 7e-43 7e-43 7e-43 0.0 0.0 0.0 0.0
0.0 0.0 0.0 0.0 0.0 0.0 0.0 0.0
7e-43 7e-43 7e-43 7e-43 7e-43 7e-43 7e-43 7e-43
7e-43 7e-43 7e-43 7e-43 7e-43 7e-43 7e-43 7e-43
7e-43 7e-43 7e-43 7e-43 7e-43 7e-43 7e-43 7e-43
7e-43 7e-43 7e-43 7e-43 7e-43 7e-43 7e-43 7e-43
7e-43 7e-43 7e-43 7e-43 7e-43 7e-43 7e-43 7e-43

exp_avg f4 [128]
00000000: 0400 0000 0400 0000 0400 0000 0400 0000
00000010: 0400 0000 0400 0000 0400 0000 0000 0000
00000020: 0400 0000 0400 0000 0000 0000 0400 0000
00000030: 0000 0000 0400 0000 0400 0000 0000 0000
00000040: 0400 0000 0000 0000 0400 0000 0400 0000
00000050: 0400 0000 0400 0000 0400 0080 0400 0000
00000060: 0400 0000 0000 0000 0000 0000 0000 0000
00000070: 0400 0000 0400 0000 0400 0000 0400 0000
00000080: 0400 0000 0400 0000 0400 0000 0400 0000
00000090: 0400 0000 0400 0000 0400 0000 0400 0000
000000a0: 0400 0000 0400 0000 0400 0000 0400 0000
000000b0: 0400 0000 0400 0000 0400 0000 0000 0000
000000c0: 0400 0000 0400 0000 0400 0000 0400 0000
000000d0: 0400 0000 0400 0000 0000 0000 0400 0000
000000e0: 0400 0000 0400 0000 0400 0000 0000 0000
000000f0: 0400 0000 0400 0000 0400 0000 0400 0000
00000100: 0400 0000 0400 0000 0400 0000 0400 0000
00000110: 0400 0000 0400 0000 0400 0000 0400 0000
00000120: 0000 0000 0000 0000 0000 0000 0400 0000
00000130: 0400 0000 0400 0000 0000 0000 0000 0000
00000140: 0000 0000 0400 0000 0000 0000 0400 0000
00000150: 0400 0000 0400 0000 0400 0000 0400 0000
00000160: 0400 0000 0400 0000 0400 0000 0400 0000
00000170: 0000 0000 0400 0000 0400 0000 0000 0000
00000180: 0000 0000 0400 0000 0400 0000 0400 0000
00000190: 0000 0000 0400 0000 0400 0000 0400 0000
000001a0: 0400 0000 0400 0000 0400 0000 0400 0000
000001b0: 0400 0000 0400 0000 0400 0000 0400 0000
000001c0: 0400 0000 0000 0000 0400 0000 0400 0000
000001d0: 0400 0000 0400 0000 0400 0000 0400 0000
000001e0: 0400 0000 0400 0000 0400 0000 0400 0000
000001f0: 0400 0000 0400 0000 0000 0000 0400 0000
6e-45 6e-45 6e-45 6e-45 6e-45 6e-45 6e-45 0.0
6e-45 6e-45 0.0 6e-45 0.0 6e-45 6e-45 0.0
6e-45 0.0 6e-45 6e-45 6e-45 6e-45 -6e-45 6e-45
6e-45 0.0 0.0 0.0 6e-45 6e-45 6e-45 6e-45
6e-45 6e-45 6e-45 6e-45 6e-45 6e-45 6e-45 6e-45
6e-45 6e-45 6e-45 6e-45 6e-45 6e-45 6e-45 0.0
6e-45 6e-45 6e-45 6e-45 6e-45 6e-45 0.0 6e-45
6e-45 6e-45 6e-45 0.0 6e-45 6e-45 6e-45 6e-45
6e-45 6e-45 6e-45 6e-45 6e-45 6e-45 6e-45 6e-45
0.0 0.0 0.0 6e-45 6e-45 6e-45 0.0 0.0
0.0 6e-45 0.0 6e-45 6e-45 6e-45 6e-45 6e-45
6e-45 6e-45 6e-45 6e-45 0.0 6e-45 6e-45 0.0
0.0 6e-45 6e-45 6e-45 0.0 6e-45 6e-45 6e-45
6e-45 6e-45 6e-45 6e-45 6e-45 6e-45 6e-45 6e-45
6e-45 0.0 6e-45 6e-45 6e-45 6e-45 6e-45 6e-45
6e-45 6e-45 6e-45 6e-45 6e-45 6e-45 0.0 6e-45
