model/model_linear_5.pth (torch, 839027 bytes, 24 tensors)

input.weight f4 [128, 16]
-0.17581306 -0.1046501 -0.10075819 0.08622355 -0.2995096 -0.08465273 0.1444096 0.14257495
-1.5476444 0.026770331 -0.1586356 -0.5213067 0.07936442 -0.5330659 -0.16568065 0.15234292
-0.21034415 -0.34167075 -0.097611226 0.0031889786 -0.003210427 -0.20575738 -0.06484216 -0.19228381
0.03066274 0.095181935 -0.48858395 0.19583829 -0.40435284 -0.15993416 -0.15961933 -0.18429549
-0.06340406 -0.39433977 0.16468324 -0.219473 -0.2535618 -0.35729155 0.11795421 -0.013330431
-0.36429232 -0.17151096 -0.0572213 0.04402275 -0.015983943 -0.11556545 0.124572925 -0.2623163
-0.3121848 -1.2989062 -0.81672084 0.23857181 0.8480596 -0.278768 0.18177354 0.020653624
-0.8575765 -1.5716677 -0.5177054 -0.91904664 0.41615823 -0.14218858 0.7380359 0.71257293
0.01906839 -0.21431088 -0.042613506 0.16578361 0.0075936317 -0.16499919 -0.14232233 0.16851956
-0.13905126 -0.19291374 0.030181974 0.025121838 0.00869754 -0.2169171 0.1328463 -0.20032486
-0.066146635 -0.025729211 -0.009054659 -0.021795675 -0.44930497 -0.21988368 0.17070454 -0.25506318
-0.48824504 0.12978946 -0.61475044 0.34814164 -0.32493803 -0.054004423 0.0053690276 0.10103122
0.11885682 -0.23831144 -0.18312466 -0.09375507 -0.05366361 -0.11558029 0.024324775 0.010561079
0.07843754 -0.02194035 0.19512752 -0.105807304 -0.23667264 -0.18449876 -0.043355525 -0.20939353
0.28955448 -0.42119336 0.6276021 -0.46496633 -1.2396847 2.4591398 0.6581575 -3.2823644
1.1200505 -0.72760946 -0.100005284 -0.036941823 -0.2169304 0.44839934 -0.11249983 -0.32702997
0.06351298 0.06737632 -0.27065682 -0.056423042 -0.33952448 -0.3514097 -0.08449771 -0.010079764
-0.13537885 -0.14389263 -0.46447214 -0.15301484 0.085105374 0.092980884 -0.038739055 -0.020758342
-0.48750854 0.05176679 -0.3434397 -0.0084140785 -0.10862149 -0.35636082 0.020666966 0.014103842
-0.15143327 0.05616917 0.0052449154 -0.5030969 0.30726862 -0.15978503 -0.3872242 0.041580196
0.31256467 0.7676433 0.0051210066 -0.17205356 -1.528422 1.0482703 -0.38321126 1.1049039
-0.8072142 0.51985204 0.24273118 0.8066145 -3.785292 -0.5754354 -0.68411034 -0.6972057
-0.46342328 -0.12916237 -0.1664368 -0.055356845 -0.325858 -0.04283701 -0.3104133 0.091763854
0.24609324 0.032087386 0.1762069 0.20037547 -0.015597982 0.22746171 -0.004480761 -0.29630727
-0.037530504 -0.3126689 0.008767932 -0.18004888 0.15154473 -0.0800364 0.03450941 -0.24585712
-0.31481752 -0.043419506 -0.056786567 -0.14678498 -0.21849243 -0.11651218 0.113921694 -0.2088307
0.17487733 -0.25765884 0.19839612 -0.11367092 0.034442242 0.027351748 -0.04029521 -0.09345173
0.10478278 -0.30992872 -0.5047397 0.15770026 -0.23961195 -0.24132584 0.11255437 -0.34339014
0.025477681 0.74731624 0.3396141 -0.5068995 -0.1384191 -0.43556482 -0.8183642 -0.34067655
-0.39347497 1.1152564 -0.02185832 -0.24002182 0.5078585 -0.37932485 0.0012536513 0.18052496
0.1655398 -0.24438465 -0.022120297 0.07242169 -0.07906569 -0.04606607 -0.040378418 -0.15001611
-0.3108949 -0.0013963949 0.020893127 0.008131385 -0.091756895 -0.18438469 -0.28371933 0.107353635
00000000: 5708 34be cb52 d6bd 4f5a cebd f995 b03d
00000010: 5359 99be 695e adbd 1ce0 133e 2bff 113e
00000020: 3619 c6bf 744d db3c 5f71 22be 5b74 05bf
00000030: d089 a23d 0277 08bf 30a8 29be c8ff 1b3e
00000040: 7564 57be 78ef aebe 65e8 c7bd 2ffe 503b
00000050: 0766 52bb 10b2 52be f7cb 84bd 0ce6 44be
00000060: 6d30 fb3c bfee c23d ad27 fabe d589 483e
00000070: 5607 cfbe c8c5 23be 4073 23be f5b7 3cbe
00000080: fdd9 81bd e7e6 c9be b9a2 283e 88bd 60be
00000090: dad2 81be ebee b6be fa91 f13d e167 5abc
000000a0: 8684 babe 92a0 2fbe e260 6abd 3351 343d
000000b0: c2f0 82bc 94ad ecbd 1720 ff3d 524e 86be
000000c0: b0d6 9fbe 8f42 a6bf 9e14 51bf 2b4c 743e
000000d0: 6f1a 593f aeba 8ebe d822 3a3e ca31 a93c
000000e0: 228a 5bbf 682c c9bf 5788 04bf a446 6bbf
000000f0: b112 d53e e299 11be ecef 3c3f 2e6b 363f
00000100: 5035 9c3c 5074 5bbe 808b 2ebd 2ec3 293e
00000110: 00d4 f83b 8cf5 28be f2bc 11be 6490 2c3e
00000120: 7463 0ebe 2e8b 45be 3040 f73c 50cc cd3c
00000130: 2080 0e3c 841f 5ebe dc08 083e f621 4dbe
00000140: e377 87bd 11c6 d2bc fe59 14bc d88c b2bc
00000150: 4d0b e6be 3029 61be 2ccd 2e3e a497 82be
00000160: 41fb f9be 87e7 043e 4960 1dbf 9f3f b23e
00000170: 475e a6be be33 5dbd abee af3b 75e9 ce3d
00000180: 346b f33d ea07 74be 0885 3bbe a802 c0bd
00000190: 60ce 5bbd 5cb5 ecbd c044 c73c 6008 2d3c
000001a0: dca3 a03d 40bc b3bc 82cf 473e 80b1 d8bd
000001b0: 505a 72be 3eed 3cbe 9095 31bd 426b 56be
000001c0: 7c40 943e a8a6 d7be 88aa 203f 1110 eebe
000001d0: fdad 9ebf 8c62 1d40 037d 283f 4212 52c0
000001e0: d15d 8f3f 9d44 3abf 92cf ccbd 4f50 17bd
000001f0: 0123 5ebe 9994 e53e 5066 e6bd 7970 a7be
00000200: 1813 823d 99fc 893d 8893 8abe d91b 67bd
00000210: 27d6 adbe f9eb b3be 230d adbd 9825 25bc
00000220: c1a0 0abe 9758 13be 4bcf edbe ecaf 1cbe
00000230: ba4b ae3d c36c be3d d8ac 1ebd 660d aabc
00000240: b89a f9be 6a09 543d 54d7 afbe 34db 09bc
00000250: f274 debd ed74 b6be c54d a93c cd13 673c
00000260: 5311 1bbe a511 663d 8add ab3b f5ca 00bf
00000270: 5052 9d3e b09e 23be 4042 c6be ff4f 2a3d
00000280: 7a08 a03e 4584 443f 1ece a73b cf2e 30be
00000290: 55a3 c3bf b92d 863f 4434 c4be 7e6d 8d3f
000002a0: 97a5 4ebf 0615 053f 868e 783e 4a7e 4e3f
000002b0: 3942 72c0 bc4f 13bf db21 2fbf 137c 32bf
000002c0: d145 edbe 2443 04be 696e 2abe dcbd 62bd
000002d0: dcd6 a6be dc75 2fbd 7eee 9ebe b0ee bb3d
000002e0: deff 7b3e 106e 033d 956f 343e 3a2f 4d3e
000002f0: ae8e 7fbc b9eb 683e 59d3 92bb 96b5 97be
00000300: 96b9 19bd 2316 a0be 5fa7 0f3c bc5e 38be
00000310: 8b2e 1b3e 20ea a3bd bd59 0d3d f8c1 7bbe
00000320: c32f a1be a7d8 31bd 0899 68bd cd4e 16be
00000330: 7bbc 5fbe f09d eebd c74f e93d b7d7 55be
00000340: 0b13 333e dceb 83be 5a28 4b3e 4dcc e8bd
00000350: 4f13 0d3d c610 e03c 970c 25bd 9f63 bfbd
00000360: 5b98 d63d faae 9ebe 9f36 01bf 2d7c 213e
00000370: d65c 75be 1f1e 77be e882 e63d d5d0 afbe
00000380: 92b6 d03c 1e50 3f3f e6e1 ad3e 2ac4 01bf
00000390: bdbd 0dbe 5a02 dfbe 5180 51bf 286d aebe
000003a0: 8d75 c9be b9c0 8e3f 3810 b3bc 48c8 75be
000003b0: 0403 023f de36 c2be 8f51 a43a 89db 383e
000003c0: 4483 293e f83f 7abe a035 b5bc d351 943d
000003d0: 31ed a1bd c7af 3cbd d763 25bd d39d 19be
000003e0: 9e2d 9fbe 3d07 b7ba 1028 ab3c 8039 053c
000003f0: 0aeb bbbd 57cf 3cbe a943 91be 39dc db3d

input.bias f4 [128]
-0.26960033 -0.15390407 -0.106451824 0.63010013 0.17441663 -0.17935792 -0.20232162 -0.36743557
-0.26832294 -0.34621105 -0.880173 -0.005930395 0.12785743 -0.26248527 0.022964204 -0.07349003
0.6629813 -0.32917845 0.010897041 -0.17554426 -0.14696129 -0.37381554 0.17749068 -0.0036919257
-0.008266249 -0.31160122 -0.38355368 0.042009756 -0.14762944 -0.035283957 0.19360173 0.23286057
0.20869383 -0.08038818 -0.28524315 -0.1483964 0.16397734 -0.02734581 -0.15377289 -0.18045904
-0.058033083 -0.07396108 0.104491115 -0.3323971 0.1635522 -0.29141927 -0.6484125 -0.026321422
-0.52054924 -0.14893611 -0.057376176 -0.206692 -0.20778392 -0.18193366 -0.16849838 -0.17145213
-0.3425083 -0.09377915 0.48628584 -0.29553506 0.1770935 0.16755944 -0.10565095 -0.00730446
-0.16042629 -0.028962985 0.11146578 0.15779483 -0.112944596 -0.281234 -0.039160065 0.06721442
-0.14955804 -0.1358858 0.11737068 -0.050764617 -0.30822995 0.13593295 -0.2453038 0.010061758
-0.33853385 -0.13180164 -0.19195738 0.104485095 -0.058290828 -0.16005418 -0.31177324 -0.72090626
-0.18653819 -0.06694714 -0.16329494 0.097273536 0.06563323 0.2385584 0.055999827 -0.2338945
-0.11026151 -0.13473105 -0.26938027 -0.008786112 -0.42580774 0.08233604 -0.08967051 -0.20133483
-0.3760585 -0.29071495 0.16623047 -0.12205092 -0.012914181 0.026044667 -0.047164228 0.58573276
0.06967412 0.16373858 -0.036349237 0.15387681 -0.20832905 -0.017571878 -0.22607404 -0.15292381
-0.57877874 -0.0020131564 -0.0010772943 -0.20778745 0.07348248 -0.3183144 -0.0029883978 -0.020754218
00000000: 0e09 8abe 0799 1dbe 6a03 dabd 3e4e 213f
00000010: 469a 323e 9aa9 37be 662d 4fbe 8420 bcbe
00000020: a061 89be 9342 b1be 0553 61bf c253 c2bb
00000030: 0fed 023e 7864 86be 6d1f bc3c f181 96bd
00000040: 24b9 293f 148a a8be 8189 323c e0c1 33be
00000050: 057d 16be c064 bfbe 1ec0 353e 3cf4 71bb
00000060: 296f 07bc 328a 9fbe 2661 c4be 6c12 2c3d
00000070: 2c2c 17be e985 10bd 883f 463e 0073 6e3e
00000080: d6b3 553e 8fa2 a4bd 640b 92be 3af5 17be
00000090: ade9 273e 5204 e0bc a476 1dbe 41ca 38be
000000a0: 19b4 6dbd e878 97bd 70ff d53d f42f aabe
000000b0: 3a7a 273e e834 95be 5dfe 25bf 06a0 d7bc
000000c0: b742 05bf b582 18be 4803 6bbd 11a7 53be
000000d0: 4fc5 54be d14c 3abe d78a 2cbe 2691 2fbe
000000e0: 3f5d afbe 480f c0bd 75fa f83e 5f50 97be
000000f0: 0058 353e b494 2b3e 865f d8bd 405a efbb
00000100: ca46 24be c843 edbc 2c48 e43d f894 213e
00000110: 7f4f e7bd e7fd 8fbe 4e66 20bd b7a7 893d
00000120: be25 19be a625 0bbe 0a60 f03d 8fee 4fbd
00000130: 51d0 9dbe 0232 0b3e eb30 7bbe 12da 243c
00000140: 4f54 adbe 02f7 06be 7a90 44be 48fc d53d
00000150: 5dc2 6ebd 3ee5 23be bea0 9fbe 508d 38bf
00000160: de03 3fbe 951b 89bd ca36 27be 5937 c73d
00000170: b76a 863d a748 743e 1360 653d 0a82 6fbe
00000180: c9d0 e1bd f0f6 09be 36ec 89be a0f3 0fbc
00000190: 7903 dabe cc9f a83d 2ca5 b7bd b82a 4ebe
000001a0: bd8a c0be 97d8 94be 5238 2a3e d5f5 f9bd
000001b0: 0096 53bc a05b d53c 472f 41bd 95f2 153f
000001c0: 4eb1 8e3d 16ab 273e f0e2 14bd e291 1d3e
000001d0: 3654 55be e6f2 8fbc f47f 67be 0f98 1cbe
000001e0: d82a 14bf 29ef 03bb 0034 8dba 3cc6 54be
000001f0: fc7d 963d 1bfa a2be ffd8 43bb c004 aabc

hidden1.weight f4 [256, 128]
-0.021894401 0.017223667 0.03288513 -0.04646149 -0.073168784 -0.008227099 0.02918114 -0.28431883
0.0025366538 -0.11777757 -0.012326616 -0.076883756 -0.05807372 0.024221567 -0.005143038 -0.049148925
-0.12703443 0.059097696 0.03321858 0.068275355 -0.06324235 0.020881426 0.048691537 -0.03537947
0.008974731 -0.045251068 -0.012373477 -0.039061774 0.001425099 -0.042707823 -0.017970225 -0.019189345
0.042877685 -0.07281118 0.024237568 -0.006250238 0.07212858 -0.3375197 0.068586335 -0.10691924
0.0024811411 0.045016896 0.02604358 -0.019781834 -0.051125687 -0.0669967 -0.024910077 -0.0077274586
-0.010573837 -0.09041368 0.06001233 -0.024671132 0.06601101 -0.16382441 0.020207748 -0.082508616
0.08836482 -0.04083706 -0.028572492 0.07710121 0.049870804 0.03493512 0.007545466 -0.19554941
0.054516736 0.057369325 -0.02426362 0.01095032 0.0021580423 -0.036128163 -0.033926684 0.0107079465
-0.10401 -0.035154708 0.07482743 -0.02910629 -0.075545914 -0.06892405 0.08398352 -0.033060737
-0.086356856 -0.05804799 -0.04690023 -0.044790003 -0.054259326 0.028895246 -0.020726256 -0.06424364
-0.0707406 0.06621765 0.013363848 -0.02953544 -0.053427182 -0.020055106 -0.20443526 -0.027049761
-0.07266688 0.08474076 0.014759232 0.05689756 -0.003849035 -0.08614649 0.0329721 -0.036959562
-0.11410064 -0.07437004 -0.09213474 -0.106460996 -0.0152708255 0.037510864 -0.087378204 0.0012213283
-0.052679647 -0.056050185 -0.048233584 0.045722675 -0.035446636 0.03324742 -0.06805205 -0.014519568
-0.014305971 -0.06598227 -0.04649656 0.066879965 0.03806894 0.0026225755 -0.09361994 -0.060100276
-0.009172063 0.06499318 0.0142727345 -0.18393655 0.02407744 -0.08279211 0.08382749 -0.12390481
-0.11641836 -0.002830912 -0.13064958 -0.061620973 -0.06829914 -0.109152004 -0.14386421 -0.07686614
-0.17297825 -0.09228846 -0.025106091 0.003743367 -2.1621332e-05 -0.098029174 -0.08746116 -0.12331127
-0.1212678 -0.085758336 -0.08150034 0.03747389 -0.0013204502 -0.041017964 0.028000955 -0.054296445
-0.051514752 0.038689382 0.041128717 -0.077963546 -0.032522332 0.0754406 0.08324547 -0.067762285
-0.03993522 -0.03891752 0.0017515176 0.08651424 0.053818215 -0.023363661 -0.12818405 -0.0012464614
-0.009285481 -0.09079064 -0.049447663 -0.0139479935 0.08590228 0.028373748 -0.08462567 0.03997087
0.046779778 0.013256627 -0.15587123 0.05294151 -0.03851223 -0.030555 -0.08160432 0.040278353
-0.0042199427 -0.051301055 -0.07751324 -0.029411366 0.0016380325 0.04230062 0.041113123 -0.01826225
0.02460767 0.05524593 -0.04973683 0.01560979 -0.05173106 -0.02481245 0.086241744 -0.009389602
-0.05853129 -0.0076599577 0.0068754046 -0.033969358 0.07019548 0.04156967 -0.10450281 -0.041823193
-0.10214657 -0.028998159 0.073508814 0.014416167 -0.099793024 -0.17233245 -0.05059682 -0.12406666
0.057602003 0.03907488 -0.013935874 0.0376331 -0.060405556 0.07269305 0.06115676 0.07810219
0.019272516 -0.002063383 -0.066759765 -0.07419484 0.054709326 0.02231329 -0.0033181165 -0.18307869
0.020767024 -0.09305463 0.021901025 -0.01945432 0.030673433 0.025817895 -0.006552706 -0.069823764
-0.014830502 -0.047333427 0.0717847 0.07246528 -0.049859088 -0.17597069 0.008956176 -0.09086409
00000000: e35b b3bc a618 8d3c 8fb2 063d 674e 3ebd
00000010: 84d9 95bd f4ca 06bc 490d ef3c 3d92 91be
00000020: fd3d 263b 5e35 f1bd 93f5 49bc 3b75 9dbd
00000030: b6de 6dbd 4f6c c63c ee86 a8bb 6250 49bd
00000040: 5015 02be 6d10 723d 3510 083d f3d3 8b3d
00000050: 3585 81bd 860f ab3c c770 473d 10ea 10bd
00000060: c00a 133c 2f59 39bd 20ba 4abc 3dff 1fbd
00000070: 63ca ba3a 66ee 2ebd 4b36 93bc f932 9dbc
00000080: 83a0 2f3d 071e 95bd dd8d c63c ccce ccbb
00000090: 26b8 933d 62cf acbe fe76 8c3d 79f8 dabd
000000a0: a49a 223b a363 383d 5959 d53c 830d a2bc
000000b0: 2b69 51bd 9135 89bd 3810 ccbc 9f36 fdbb
000000c0: e33d 2dbc cf2a b9bd 7dcf 753d 1d1b cabc
000000d0: c830 873d 96c1 27be b88a a53c 47fa a8bd
000000e0: 9df8 b43d c344 27bd dc10 eabc 3de7 9d3d
000000f0: 5445 4c3d 2118 0f3d f53f f73b 1b3e 48be
00000100: f14c 5f3d 19fc 6a3d 80c4 c6bc f968 333c
00000110: f16d 0d3b 20fb 13bd b5f6 0abd 6270 2f3c
00000120: 3203 d5bd 62fe 0fbd 203f 993d 5070 eebc
00000130: d1b7 9abd 0d28 8dbd 8dff ab3d b26a 07bd
00000140: dddb b0bd bbc3 6dbd 751a 40bd b975 37bd
00000150: 073f 5ebd b9b5 ec3c 1cca a9bc 2b92 83bd
00000160: 73e0 90bd 1f9d 873d 0bf4 5a3c 4ff4 f1bc
00000170: 76d6 5abd 9b4a a4bc 7a57 51be 7697 ddbc
00000180: 60d2 94bd 908c ad3d b5d0 713c 6a0d 693d
00000190: 1740 7cbb 926d b0bd c10d 073d e962 17bd
000001a0: 99ad e9bd 524f 98bd 23b1 bcbd 3908 dabd
000001b0: 7c32 7abc fea4 193d 58f3 b2bd fa14 a03a
000001c0: 9dc6 57bd e194 65bd 9490 45bd b347 3b3d
000001d0: 7e30 11bd 722e 083d e05e 8bbd 7be3 6dbc
000001e0: 9763 6abc b621 87bd 2d73 3ebd 5df8 883d
000001f0: 2dee 1b3d 84df 2b3b d0bb bfbd b52b 76bd
00000200: 6c46 16bc 251b 853d 30d8 693c dd59 3cbe
00000210: 0d3e c53c e98e a9bd bfad ab3d cec1 fdbd
00000220: c06c eebd d286 39bb 01c9 05be 4666 7cbd
00000230: 6be0 8bbd 168b dfbd 2451 13be ff6b 9dbd
00000240: 3621 31be bb01 bdbd 4aab cdbc 4753 753b
00000250: 755f b5b7 85c3 c8bd d61e b3bd 9e8a fcbd
00000260: 415b f8bd 11a2 afbd a6e9 a6bd 397e 193d
00000270: f512 adba 7402 28bd 4262 e53c f365 5ebd
00000280: 2201 53bd c278 1e3d 9676 283d 5aab 9fbd
00000290: 2336 05bd 9a80 9a3d 9a7c aa3d f4c6 8abd
000002a0: 1d93 23bd fa67 1fbd 2e93 e53a 612e b13d
000002b0: 7d70 5c3d 2665 bfbc ae42 03be 4e60 a3ba
000002c0: 2122 18bc 71f0 b9bd a289 4abd 2086 64bc
000002d0: 89ed af3d 1070 e83c 3950 adbd 7fb8 233d
000002e0: 279c 3f3d 5332 593c b59c 1fbe 32d9 583d
000002f0: 00bf 1dbd 7b4e fabc 2a20 a7bd eafa 243d
00000300: 7247 8abb 0e21 52bd 43bf 9ebd 1bf0 f0bc
00000310: 40b3 d63a 6a43 2d3d 3c66 283d b79a 95bc
00000320: 0696 c93c 8e49 623d d9b8 4bbd 34c0 7f3c
00000330: f3e3 53bd 7b43 cbbc 839f b03d d8d6 19bc
00000340: 82be 6fbd 6200 fbbb 134b e13b 7423 0bbd
00000350: a6c2 8f3d f544 2a3d 9205 d6bd cc4e 2bbd
00000360: 3932 d1bd 8c8d edbc ca8b 963d c931 6c3c
00000370: 4960 ccbd eb77 30be 9c3e 4fbd a916 febd
00000380: 14f0 6b3d fb0c 203d 4b53 64bc 2a25 1a3d
00000390: d16b 77bd 18e0 943d 837f 7a3d 0af4 9f3d
000003a0: 65e1 9d3c d339 07bb 58b9 88bd 77f3 97bd
000003b0: e316 603d 5cca b63c c274 59bb fb78 3bbe
000003c0: 9b1f aa3c 6d93 bebd c769 b33c ab5e 9fbc
000003d0: da46 fb3c 0d80 d33c 15b8 d6bb c3ff 8ebd
000003e0: a2fb 72bc b2e0 41bd db03 933d ad68 943d
000003f0: 0b39 4cbd a931 34be edbc 123c f416 babd

hidden1.bias f4 [256]
-0.04711041 -0.14407395 -0.08689473 -0.15691979 -0.34373805 -0.22883129 -0.847595 -0.15936579
-0.07954483 -0.14605963 -0.12373397 0.15722841 0.8650147 -0.16990669 -0.15784812 -0.1752067
-0.13631803 -0.249745 -0.18971007 -0.07625505 0.3784164 1.5074077 -0.08365968 -0.056893192
-1.0884017 -0.25675583 1.6081085 -0.050456557 -0.15399003 -0.09054848 -0.14836971 -0.31731352
-0.20426896 -0.112106875 -0.39329746 -0.3906355 -0.6832746 -0.23624496 -0.25389838 -0.3626734
-0.069568545 0.02922083 -0.10818077 -0.4748697 0.35537606 -1.0395123 -0.11142707 0.020019626
-0.1255315 -0.1419215 -0.27516943 -0.19869809 -0.10614337 -0.09733298 -0.16621993 -0.0841307
-0.056675486 -0.17382015 -0.11264488 -0.24808224 -0.4646161 1.3156723 -0.55777276 -0.09868977
-0.56408393 -0.1565882 -0.242357 0.08011428 -0.19508457 -0.23325936 -1.1436484 -0.46945083
0.15069996 0.6284173 -0.179397 -0.3727185 -0.15966864 -0.3454432 -0.78207695 -0.18194324
-0.03314982 0.024586603 -0.046816748 -0.09605412 -0.059920974 -0.0027273078 -0.1430821 -0.17885129
0.8679269 0.16542003 -0.015354568 -0.6945651 -0.15561719 -0.06185948 -0.27154425 -0.18370403
-0.11076152 -0.14973341 -0.036136612 -0.18117797 -0.14530724 -0.24484664 -0.1684827 -0.12585862
-2.1642158 -0.29388425 -0.69229805 -0.21514301 -0.039381605 -0.29279214 -0.09934353 1.4344125
-0.13951276 -0.33858016 -0.39751413 0.29284889 -0.34127972 -0.26946563 -0.25601658 -0.21774505
-0.3230413 -0.11611357 -0.1627338 0.123123385 0.1466132 -0.16878216 -0.023246057 -0.18889193
-0.4484056 -0.06397651 -0.18023883 -0.16485268 -0.14758615 -0.16082071 -0.20015217 -0.12442775
0.28667784 -0.2661789 -0.20591152 -0.08440145 -0.22220434 -0.1685535 0.021980453 -0.20172037
-0.089734495 -0.25458744 -0.319918 -0.4022415 -0.061637547 -0.10320742 -0.36247894 -0.16447067
-0.118273646 -0.26611626 -0.18718714 -1.811261 -0.2786075 -0.2327944 -0.7813458 -0.23517476
0.049146257 -0.27778125 -0.7161052 -0.2260818 0.45787123 -0.2991983 -0.17722239 -0.123099715
-0.19350995 -0.056899782 -0.017544815 -0.11519892 -0.19331643 -0.14606822 -0.3396752 -0.94069225
-0.17308342 -0.49521205 -0.20227204 0.24489641 -0.17092194 -0.40688196 -0.21798067 -0.12854375
-0.54410887 -0.1616623 -0.7250083 -0.5175499 -0.19842567 -0.40696058 -0.88363343 -0.1833544
-0.35389853 -0.26041642 -0.39401543 -0.110000044 -0.18255289 0.016737884 -0.15290284 0.13686378
-0.10207632 0.3952773 -1.4076991 -0.3083938 -0.19333662 0.38871634 -0.20791398 -0.11359942
-0.19294822 -0.2698469 -0.21279413 -0.21591848 -0.14604698 0.62436765 -0.08370599 -0.27695963
-0.14097403 -0.19772974 -0.35213608 -0.21042185 -0.5357142 -0.1229371 -0.20710889 -0.25096798
-0.65653104 -0.12658176 -0.20117554 -1.0289034 -0.2125442 -0.21444367 -0.24190147 -0.21566816
-0.23293374 -0.029989593 -0.31918302 -0.6235365 -0.25495407 0.9201645 -0.15840082 -0.98723656
-0.19681177 1.103496 -0.16009185 -0.010363612 -0.28338912 -2.408593 -0.35330823 1.453584
-0.1471717 -0.14210631 -0.1645009 -0.09303072 -0.359089 -0.19352756 -0.2724687 -0.11582658
00000000: d8f6 40bd 1f88 13be ddf5 b1bd 95af 20be
00000010: 6ffe afbe c052 6abe fcfb 58bf c930 23be
00000020: 66e8 a2bd a890 15be 3c68 fdbd 7c00 213e
00000030: 9a71 5d3f 05fc 2dbe f0a2 21be 6369 33be
00000040: f496 0bbe 27bd 7fbe 5b43 42be 9c2b 9cbd
00000050: cbbf c13e bcf2 c03f c455 abbd d608 69bd
00000060: bf50 8bbf 8075 83be 80d6 cd3f 89ab 4ebd
00000070: 90af 1dbe 7b71 b9bd 3bee 17be eb76 a2be
00000080: e22b 51be 4a98 e5bd 495e c9be 6001 c8be
00000090: 16eb 2ebf 33ea 71be f8fe 81be 54b0 b9be
000000a0: f479 8ebd 8660 ef3c e18d ddbd 1f22 f3be
000000b0: daf3 b53e bd0e 85bf e033 e4bd 3300 a43c
000000c0: 548b 00be df53 11be 02e3 8cbe 8377 4bbe
000000d0: b261 d9bd 8356 c7bd 8f35 2abe b74c acbd
000000e0: 8e24 68bd e9fd 31be 5cb2 e6bd 4509 7ebe
000000f0: 29e2 edbe f367 a83f 32ca 0ebf dd1d cabd
00000100: ce67 10bf a858 20be 6f2c 78be f512 a43d
00000110: 40c4 47be 8bdb 6ebe 1263 92bf dc5b f0be
00000120: 1751 1a3e f5df 203f d9b3 37be f6d4 bebe
00000130: 2d80 23be eedd b0be 3236 48bf 544f 3abe
00000140: 1bc8 07bd d869 c93c ebc2 3fbd 06b8 c4bd
00000150: b26f 75bd a2bc 32bb 1d84 12be cb24 37be
00000160: 7530 5e3f de63 293e ba91 7bbc 05cf 31bf
00000170: 1d5a 1fbe 5e60 7dbd d907 8bbe e91c 3cbe
00000180: f0d6 e2bd b753 19be fc03 14bd b886 39be
00000190: 6ccb 14be 14b9 7abe bb86 2cbe 15e1 00be
000001a0: 8382 0ac0 ff77 96be 723a 31bf 734e 5cbe
000001b0: 9b4e 21bd dae8 95be 9f74 cbbd d49a b73f
000001c0: 6fdc 0ebe 615a adbe f986 cbbe 4af0 953e
000001d0: 37bc aebe 66f7 89be 9b14 83be 8ff8 5ebe
000001e0: ab65 a5be f4cc edbd b0a3 26be 1d28 fc3d
000001f0: c521 163e 3bd5 2cbe 846e bebc e36c 41be
00000200: 6b95 e5be 1e06 83bd 8790 38be 24cf 28be
00000210: d320 17be 2fae 24be b1f4 4cbe fad3 febd
00000220: 70c7 923e 9a48 88be 78da 52be abda acbd
00000230: 8989 63be 4a99 2cbe 5a10 b43c c98f 4ebe
00000240: b8c6 b7bd 4959 82be 4bcc a3be 99f2 cdbe
00000250: a777 7cbd 695e d3bd d796 b9be 006b 28be
00000260: 7439 f2bd 6440 88be fcad 3fbe 67d7 e7bf
00000270: a4a5 8ebe a861 6ebe 4706 48bf a7d1 70be
00000280: 964d 493d 5839 8ebe ac52 37bf fd81 67be
00000290: 196e ea3e 8530 99be c979 35be b41b fcbd
000002a0: 7927 46be bf0f 69bd 25ba 8fbc 69ed ebbd
000002b0: bef4 45be e892 15be e8e9 adbe 35d1 70bf
000002c0: c83c 31be 6f8c fdbe 6720 4fbe 20c6 7a3e
000002d0: 2906 2fbe d552 d0be 5336 5fbe f9a0 03be
000002e0: b84a 0bbf cd8a 25be 259a 39bf 267e 04bf
000002f0: 1930 4bbe 235d d0be cd35 62bf 41c1 3bbe
00000300: 3032 b5be 4d55 85be 64bc c9be b447 e1bd
00000310: 25ef 3abe e31d 893c 9092 1cbe 0526 0c3e
00000320: 640d d1bd c961 ca3e 7c2f b4bf cbe5 9dbe
00000330: 09fa 45be d405 c73e 67e7 54be d0a6 e8bd
00000340: 3894 45be 5f29 8abe b4e6 59be bc19 5dbe
00000350: 578d 15be 8fd6 1f3f 0c6e abbd a7cd 8dbe
00000360: 7f5b 10be aa79 4abe 2e4b b4be d378 57be
00000370: 9124 09bf 72c6 fbbd 5a14 54be e07e 80be
00000380: 6b12 28bf a69e 01be f600 4ebe 1bb3 83bf
00000390: 30a5 59be 1f97 5bbe 05b5 77be 1dd8 5cbe
000003a0: 2f86 6ebe bcac f5bc f56b a3be 17a0 1fbf
000003b0: 5789 82be e78f 6b3f d333 22be 89bb 7cbf
000003c0: 0689 49be 5b3f 8d3f 1eef 23be 24cc 29bc
000003d0: 6118 91be 6326 1ac0 d1e4 b4be 0a0f ba3f
000003e0: 2eb4 16be 5184 11be ed72 28be e486 bebd
000003f0: 83da b7be 172c 46be 0481 8bbe 7c36 edbd

hidden2.weight f4 [128, 256]
0.004573256 -0.05735051 0.0057180077 0.05864135 0.017442951 -0.06238956 -0.029745294 -0.105345264
-0.017912023 -0.050948687 -0.054383405 -0.08243331 -0.05844687 0.019680426 -0.024782218 -0.038518317
-0.014865518 -0.022668172 -0.16939948 -0.019709215 -0.073319905 -0.33667594 -0.050624862 -0.016299658
0.053756893 -0.059368923 -0.13088429 -0.02945181 0.0383595 -0.05227562 0.02417346 -0.013690002
-0.08040446 -0.05074972 0.053130325 -0.027469374 -0.14027178 0.0076260716 0.026783384 -0.13872847
-0.0042169914 -0.037179947 0.02456481 0.011244482 -0.09211653 -0.09304763 0.011453889 -0.027164854
0.044253275 0.02341304 0.055043496 -0.051967874 -0.0048121586 0.035984382 0.0071705654 -0.078717686
-0.011073783 -0.0025642738 0.01797834 0.04408648 -0.03907635 -0.055265818 -0.005823415 -0.02245152
-0.0714037 -0.055006728 -0.115759976 -0.020065367 0.010146558 -0.01422479 -0.08175456 -0.059357908
0.00037707388 -0.029301966 0.014727615 -0.006910369 0.0046436116 -0.073380426 -0.003233768 0.02919849
-0.16313668 -0.020250943 -0.026420608 -0.02489607 -0.03147793 -0.005507879 -0.019253276 -0.014160998
-0.009656407 -0.076037124 0.03240955 -0.004021993 -0.039571226 0.061295956 0.045748405 -0.02520299
-0.11075639 0.03864678 -0.046839222 -0.05410316 -0.015453473 -0.013125977 -0.13457495 -0.048109315
-0.001277417 0.023488902 -0.008362234 0.019666545 0.031235881 -0.023160232 -0.039695367 -0.049133174
-0.024057759 -0.008318923 -0.014007591 -0.1688326 -0.12797979 0.048846453 0.041103773 0.05652163
-0.0988579 0.007020958 -0.0549184 -0.14095196 0.043360125 -0.0339386 0.03302002 -0.02238217
-0.06841012 0.054928258 -0.049239323 -0.02080638 0.044899173 -0.044194803 -0.03113915 0.061828688
-0.06832247 -0.008319981 -0.03916224 0.028354876 -0.026672632 -0.060431503 -0.03683918 -0.15565252
-0.014944896 0.007163547 -0.04092584 -0.10082298 -0.03938453 0.051487118 -0.07700046 -0.042059153
-0.12326558 0.044926364 -0.014891222 -0.04930116 -0.13301833 0.028852202 -0.048738606 -0.07706753
-0.0140971765 -0.0019185022 0.040802687 -0.052609697 0.02048826 -0.011768438 -0.12240723 -0.03330581
-0.0029953197 -0.045407996 0.034233786 -0.05088514 0.029802486 0.007407017 0.026693135 -0.06886436
-0.091195926 0.018977255 0.0023638755 -0.15878443 -0.028192565 -0.056106526 -0.03693591 0.03117133
-0.11038171 -0.0023800284 -0.11121343 -0.06985553 0.0055560246 0.009101301 0.03139449 -0.03489601
-0.054256693 -0.04803562 -0.07393072 -0.0018523633 -0.056308933 0.018133886 -0.05431184 -0.08769983
0.025874563 -0.012799519 -0.029161409 -0.00789543 0.023551077 0.03005413 -0.14572908 -0.028528422
0.03051214 0.057915516 0.026006564 0.05812131 0.066512965 0.023491576 -0.041015156 -0.1570748
-0.0799916 -0.0066652447 -0.04604739 -0.033302452 -0.09073973 -0.02027648 -0.06665211 0.02664011
-0.14315401 -0.012441471 -0.029769659 -0.0126403645 0.00782916 -0.015094355 -0.012768246 0.019949704
0.021408565 -0.064702496 -0.0046385527 -0.0731677 -0.0025564805 -0.047191106 -0.022222139 -0.042844128
0.01201139 -0.061624717 -0.020216994 0.053164274 0.03722979 -0.061862543 0.060211517 -0.043164413
0.009465389 0.012875587 0.09487792 -0.021977179 -0.060715806 -0.0011779666 -0.03611935 -0.060311034
00000000: 40db 953b 5ee8 6abd 205e bb3b ea31 703d
00000010: 85e4 8e3c 328c 7fbd 67ac f3bc 42bf d7bd
00000020: 3cbc 92bc 92af 50bd 22c1 5ebd ccd2 a8bd
00000030: fc65 6fbd d838 a13c 1404 cbbc 62c5 1dbd
00000040: 808e 73bc 9ab2 b9bc 0f77 2dbe 3875 a1bc
00000050: bf28 96bd ca60 acbe 045c 4fbd dc86 85bc
00000060: 3030 5c3d d42c 73bd 8806 06be ec44 f1bc
00000070: da1e 1d3d f61e 56bd 6c07 c63c 084c 60bc
00000080: 18ab a4bd f0de 4fbd 2f9f 593d 7407 e1bc
00000090: 68a3 0fbe 20e4 f93b d468 db3c d60e 0ebe
000000a0: b02e 8abb 004a 18bd 243c c93c c73a 383c
000000b0: 97a7 bcbd c18f bebd 18a9 3b3c d488 debc
000000c0: ec42 353d b4cc bf3c 4a75 613d 44dc 54bd
000000d0: 50af 9dbb 5c64 133d 10f7 ea3b bd36 a1bd
000000e0: d06e 35bc 600d 28bb 5047 933c 0694 343d
000000f0: 860e 20bd 695e 62bd 58d2 bebb 40ec b7bc
00000100: 1a3c 92bd bc4e 61bd 9113 edbd 2060 a4bc
00000110: c03d 263c 180f 69bc ef6e a7bd 4721 73bd
00000120: 00b2 c539 ad0a f0bc 184c 713c 6070 e2bb
00000130: 7029 983b 7a48 96bd a0ed 53bb ac31 ef3c
00000140: 4d0d 27be 4ee5 a5bc 0870 d8bc d8f2 cbbc
00000150: 00ef 00bd 707b b4bb 0cb9 9dbc 8803 68bc
00000160: e835 1ebc 5ab9 9bbd e0bf 043d ecca 83bb
00000170: 7015 22bd 7811 7b3d ae62 3b3d 8076 cebc
00000180: 3fd4 e2bd 164c 1e3d 7cda 3fbd 469b 5dbd
00000190: 9030 7dbc 560e 57bc 04ce 09be 460e 45bd
000001a0: 006f a7ba cc6b c03c c001 09bc bc1b a13c
000001b0: 64e2 ff3c 87ba bdbc 9c97 22bd de3f 49bd
000001c0: c714 c5bc 184c 08bc 1880 65bc 74e2 2cbe
000001d0: 220d 03be 3813 483d 6e5c 283d 3a83 673d
000001e0: 0376 cabd 1010 e63b 1ef2 60bd b655 10be
000001f0: 639a 313d 3403 0bbd 0040 073d d05a b7bc
00000200: 9b1a 8cbd 74fc 603d 2caf 49bd 2472 aabc
00000210: 32e8 373d 9c05 35bd 8817 ffbc 1440 7d3d
00000220: a7ec 8bbd 8850 08bc 9668 20bd 7c48 e83c
00000230: 9080 dabc 0687 77bd aee4 16bd 6063 1fbe
00000240: 70db 74bc 30bc ea3b dba1 27bd 477c cebd
00000250: ac51 21bd 28e4 523d 6bb2 9dbd 3846 2cbd
00000260: aa72 fcbd b504 383d 50fa 73bc 03f0 49bd
00000270: f535 08be 745b ec3c 22a2 47bd 95d5 9dbd
00000280: d8f7 66bc 4076 fbba b820 273d 447d 57bd
00000290: ffd6 a73c 68d0 40bc a4b0 fabd ac6b 08bd
000002a0: 204d 44bb bcfd 39bd ba38 0c3d f06c 50bd
000002b0: 5824 f43c 90b6 f23b 90ab da3c c208 8dbd
000002c0: eec4 babd 3076 9b3c 40eb 1a3b 6398 22be
000002d0: 18f4 e6bc f5cf 65bd 1c4a 17bd 045b ff3c
000002e0: ce0f e2bd 40fa 1bbb dec3 e3bd 6b10 8fbd
000002f0: 500f b63b a01d 153c 8297 003d 1eef 0ebd
00000300: 443c 5ebd 00c1 44bd fd68 97bd 00cb f2ba
00000310: 32a4 66bd 848d 943c 1876 5ebd f89b b3bd
00000320: e4f6 d33c 13b5 51bc e8e3 eebc d55b 01bc
00000330: 30ee c03c 1434 f63c 013a 15be 70b4 e9bc
00000340: 98f4 f93c d238 6d3d b80b d53c 9c10 6e3d
00000350: f337 883d 6871 c03c 82ff 27bd 37d8 20be
00000360: a3d2 a3bd 2068 dabb 309c 3cbd 2768 08bd
00000370: c0d5 b9bd dc1a a6bc e780 88bd 5c3c da3c
00000380: f796 12be 50d7 4bbc 80df f3bc 8819 4fbc
00000390: e145 003c 504e 77bc e831 51bc 906d a33c
000003a0: 0461 af3c be82 84bd 00ff 97bb f2d8 95bd
000003b0: a08a 27bb 764b 41bd 340b b6bc 537d 2fbd
000003c0: 6ccb 443c 336a 7cbd 1c9e a5bc c8c2 593d
000003d0: 447e 183d 9463 7dbd 5aa0 763d 2bcd 30bd
000003e0: b814 1b3c 20f4 523c 5b4f c23d 7c09 b4bc
000003f0: 23b1 78bd 0066 9aba e2f1 13bd b408 77bd

hidden2.bias f4 [128]
-0.36525235 -0.22652376 -0.14321403 -0.1313576 -0.22222315 -0.125856 -0.33272946 -0.4236298
-0.35451669 -0.27653605 -0.25801432 -0.24425025 -0.15781984 -0.3567085 -0.2679691 -0.36626273
-0.2980622 -0.015981987 -0.2135964 -0.43290988 -0.29541844 -0.1993257 -0.22393955 -0.22074847
3.3518794 -0.30133373 -0.14433496 -0.47593474 -0.38899812 -0.3558542 -0.2712659 -0.54871845
-0.23247196 -0.37920254 -0.33049518 -0.14045222 -0.20181316 -0.31307766 -0.21164697 -0.36463183
-0.4511094 -0.15051262 -0.24618135 -0.14864163 -0.3915097 -0.27175948 -0.23089893 -0.76693326
-0.50782037 -0.48010886 -0.23368827 -0.12989861 -0.27761957 -0.14389767 -0.41260132 -0.4434326
-0.6149165 -0.22149225 -0.22538035 -0.2697471 -0.23252203 0.16822763 -0.17033844 0.13329607
-0.15395254 -0.21317984 -0.3577683 -0.40082064 -0.3455576 -0.2699629 -0.05998676 -0.2874074
-0.3045152 -0.19781919 -0.26836953 -0.09156212 -0.33023366 -0.32117817 -0.25005293 -0.44635487
-0.33991316 -0.50209975 -0.15592533 -0.18733071 -0.48035702 -0.04845148 -0.2805375 -0.36567858
-0.14951546 -0.2058326 -0.33194742 -0.23499587 -0.20591477 -0.22934954 -0.38293633 -0.26494655
-0.2976301 -0.18770541 -0.4820594 0.84161055 -0.16392285 -0.35653782 -0.35496846 -0.35642394
-0.39222792 -0.15625249 -0.4578984 -0.3508766 -0.50246847 -0.23391666 -0.27073702 -0.15628707
-0.27578306 0.08076986 -0.3254426 -0.21497446 -0.36921173 -0.3641392 -0.28123945 -0.40859583
-0.31752995 -0.47579855 -0.17911825 -0.19856723 -0.23254488 -0.33153856 -0.5185852 -0.22709504
00000000: 5b02 bbbe d8f5 67be b3a6 12be 9b82 06be
00000010: 778e 63be 65e0 00be 845b aabe 01e6 d8be
00000020: 3683 b5be 2296 8dbe 741a 84be bd1c 7abe
00000030: 869b 21be 7fa2 b6be 3f33 89be ca86 bbbe
00000040: 9c9b 98be a8ec 82bc 04b9 5abe 5da6 ddbe
00000050: 1641 97be 091c 4cbe 6950 65be e30b 62be
00000060: 3185 5640 6a48 9abe 8bcc 13be b8ad f3be
00000070: c32a c7be 8632 b6be 5de3 8abe d078 0cbf
00000080: 210d 6ebe d626 c2be aa36 a9be b5d2 0fbe
00000090: 1ca8 4ebe b74b a0be fcb9 58be 06b1 babe
000000a0: d0f7 e6be fb1f 1abe f716 7cbe 8335 18be
000000b0: f673 c8be 0f24 8bbe c570 6cbe bd55 44bf
000000c0: 8400 02bf d4d0 f5be fa4b 6fbe 2404 05be
000000d0: 2724 8ebe e959 13be 7b40 d3be 9909 e3be
000000e0: 2b6b 1dbf ddce 62be 1bca 66be 4b1c 8abe
000000f0: 411a 6ebe dd43 2c3e 336d 2ebe c47e 083e
00000100: bca5 1dbe d14b 5abe 682d b7be 5d38 cdbe
00000110: edec b0be 9438 8abe adb4 75bd 1027 93be
00000120: 6be9 9bbe 1d91 4abe bb67 89be ec84 bbbd
00000130: 6314 a9be 7771 a4be f006 80be a088 e4be
00000140: 1909 aebe 9c89 00bf e4aa 1fbe 9fd3 3fbe
00000150: 5bf1 f5be 0f75 46bd 9ca2 8fbe 393a bbbe
00000160: 951a 19be c8c5 52be 03f5 a9be c2a2 70be
00000170: 52db 52be 9bda 6abe 3b10 c4be 13a7 87be
00000180: f962 98be d935 40be 7dd0 f6be ca73 573f
00000190: 64db 27be 208c b6be 6dbe b5be 337d b6be
000001a0: 19d2 c8be a700 20be a971 eabe 19a6 b3be
000001b0: c6a1 00bf d987 6fbe 0b9e 8abe b809 20be
000001c0: 7033 8dbe ab6a a53d 6aa0 a6be 4422 5cbe
000001d0: 5209 bdbe 7470 babe 9efe 8fbe 7933 d1be
000001e0: 4993 a2be de9b f3be c66a 37be 3555 4bbe
000001f0: 3f20 6ebe 6cbf a9be 00c2 04bf 9a8b 68be

output.weight f4 [8, 128]
0.014475317 -0.05943145 -0.026791925 0.06693737 -0.08454241 -0.12578951 -0.087237425 -0.101500764
0.093211874 0.0018905129 0.0427161 0.06988729 -0.10949922 -0.04780769 -0.057369404 -0.119582005
0.03021836 0.010859704 0.03029461 0.047778167 -0.012077477 0.030635322 -0.01177543 -0.102586105
0.06928985 0.07234394 0.022860164 -0.047352448 -0.009684931 -0.08222012 -0.12370259 -0.034936126
-0.050647188 -0.0341979 0.015671892 -0.007740744 -0.057639748 0.071258366 -0.10995532 -0.117689066
0.063304015 0.06356301 0.04621518 -0.14409496 -0.07603247 0.04512982 -0.018584356 -0.061936222
-0.015674083 0.11288784 0.06928741 -0.079745665 0.0029134518 -0.11526429 0.06029021 -0.1125226
-0.09061896 0.018516244 0.01579653 0.0007128638 0.05435219 0.004740309 0.029513268 0.020973312
0.024657216 -0.11328923 -0.037985425 -0.077532195 -0.035287786 -0.053282432 0.010841055 -0.116177924
0.061344843 0.065610364 -0.004361289 0.12037606 -0.05126656 -0.056786276 0.035569772 -0.09161715
0.043276343 0.02914054 -0.022791361 -0.03285186 0.0098934155 -0.03990324 -0.056542743 0.025214076
-0.029825494 -0.04202654 0.043645673 -0.041223254 0.12140992 0.063888945 0.05598554 -0.026653014
0.09081177 0.03558148 -0.0442006 0.09115613 -0.08587325 -0.086992405 -0.051436797 0.030099325
0.091096014 0.012567762 0.03971815 0.01319664 -0.13251717 -0.05161343 -0.0026535208 -0.028657854
-0.016583977 -0.056986637 -0.044327214 0.064958304 -0.11885713 0.0038141585 -0.021463213 -0.051112935
0.04991664 -0.018191589 0.02813766 0.053480577 0.105774134 -0.061892226 -0.010668227 0.051510643
0.050555218 0.026907232 -0.037058648 -0.062830515 0.059612397 0.0011674466 0.08173105 -0.029788444
-0.021818401 0.08149705 0.07733149 -0.041392766 -0.04643329 -0.05586336 -0.014411408 -0.009396566
-0.010559967 0.08832576 0.04778028 0.07849761 0.06672764 0.055372633 -0.080572985 -0.0028852995
-0.016110886 0.021533974 -0.075203024 0.037141107 -0.07774292 0.020718705 -0.04251578 -0.06155721
-0.055168845 0.024339657 -0.004062408 0.04710023 0.043663103 -0.075983636 0.046881888 0.054664977
-0.07037675 0.059832096 0.043038484 -0.021680908 -0.04138452 0.0607372 -0.036558345 0.08394026
-0.082890816 0.009688559 0.019183706 -0.011467515 0.03396189 0.005590474 -0.025184153 0.036550704
0.05710865 0.08304125 0.051535744 0.07501027 0.07427033 0.024618754 0.06734614 -0.0042138416
-0.06075839 -0.029407393 -0.024912022 -0.06615443 0.08215701 0.0823377 -0.053620547 0.06407227
-0.05497538 -0.066447034 0.015149516 0.07187682 0.016849067 -0.003213655 -0.009402836 0.021323355
-0.017489657 -0.0393788 0.02498267 0.06396305 0.055279087 0.010246731 0.05064398 -0.08592415
-0.072231986 0.07192226 0.06580315 -0.076291256 0.035986926 0.079206206 -0.016427334 0.084418364
0.06743738 -0.020770578 -0.040145516 0.018684382 -0.021637676 0.06681018 0.08706319 0.0662581
0.02991344 -0.01148273 0.009055735 -0.027966172 -0.04943293 -0.028466718 -0.02079927 -0.06581627
-0.066769734 -0.045885567 -0.010470015 0.0021124526 0.029008843 -0.06368265 0.058957066 0.0032218103
-0.05150719 0.046112865 0.033602584 0.04757887 -0.06408831 -0.08315361 0.02835347 0.00732135
00000000: e129 6d3c 646e 73bd bd7a dbbc 7616 893d
00000010: 9224 adbd f7ce 00be 89a9 b2bd a2df cfbd
00000020: dee5 be3d 16cb f73a 14f7 2e3d 1121 8f3d
00000030: 2141 e0bd ffd1 43bd 2efc 6abd 69e7 f4bd
00000040: 7e8c f73c e6ec 313c 672c f83c 0ab3 433d
00000050: 9ce0 45bc edf6 fa3c bced 40bc aa18 d2bd
00000060: d6e7 8d3d 0f29 943d 3d45 bb3c a4f4 41bd
00000070: 8bad 1ebc 0663 a8bd c957 fdbd 2f19 0fbd
00000080: 6d73 4fbd 1913 0cbd 5762 803c 11a6 fdbb
00000090: a817 6cbd e8ef 913d 4130 e1bd f706 f1bd
000000a0: 89a5 813d 532d 823d 214c 3d3d a18d 13be
000000b0: e9b6 9bbd 0cda 383d 383e 98bc d6b0 7dbd
000000c0: ef66 80bc bd31 e73d 8fe6 8d3d b251 a3bd
000000d0: 9cef 3e3b af0f ecbd def2 763d 4072 e6bd
000000e0: 6f96 b9bd 61af 973c b967 813c 7bdf 3a3a
000000f0: 67a0 5e3d 9854 9b3b cfc5 f13c 39d0 ab3c
00000100: eefd c93c 2f04 e8bd 9b96 1bbd 33c9 9ebd
00000110: ed89 10bd ae3e 5abd ae9e 313c b1ee edbd
00000120: bb44 7b3d ba5e 863d 25e9 8ebb b987 f63d
00000130: e2fc 51bd ba98 68bd 9cb1 113d c6a1 bbbd
00000140: 8942 313d 24b8 ee3c f3b4 babc ac8f 06bd
00000150: fe17 223c 9471 23bd 5d99 67bd c08d ce3c
00000160: 9854 f4bc 0524 2cbd cec5 323d b7d9 28bd
00000170: c4a5 f83d 35d8 823d 1851 653d 6c57 dabc
00000180: 85fb b93d e3bd 113d b00b 35bd 11b0 ba3d
00000190: 51de afbd 1329 b2bd 64af 52bd dc92 f63c
000001a0: 8c90 ba3d 04e9 4d3c 80af 223d b836 583c
000001b0: 95b2 07be 9b68 53bd b1e6 2dbb e0c3 eabc
000001c0: 1fdb 87bc d26a 69bd 7490 35bd dc08 853d
000001d0: 5e6b f3bd f6f6 793b 9fd3 afbc cc5b 51bd
000001e0: 6475 4c3d 8706 95bc f380 e63c 730e 5b3d
000001f0: 1ca0 d83d b482 7dbd cac9 2ebc d3fc 523d
00000200: fd12 4f3d 8e6c dc3c cfca 17bd 49ad 80bd
00000210: 212c 743d 0205 993a 9c62 a73d e506 f4bc
00000220: 81bc b2bc ede7 a63d f95f 9e3d 768b 29bd
00000230: d530 3ebd fbd0 64bd d41d 6cbc 0ef4 19bc
00000240: b603 2dbc 23e4 b43d 41b5 433d 5bc3 a03d
00000250: 80a8 883d 6ace 623d 7303 a5bd 4b17 3dbb
00000260: fafa 83bc 0468 b03c 0b04 9abd 4621 183d
00000270: ae37 9fbd 46ba a93c 0725 2ebd 6a23 7cbd
00000280: baf8 61bd f663 c73c f31d 85bb 2cec 403d
00000290: 15d8 323d 4f9d 9bbd 3907 403d 62e8 5f3d
000002a0: af21 90bd 8012 753d 1f49 303d 299c b1bc
000002b0: d082 29bd 92c7 783d 34be 15bd dfe8 ab3d
000002c0: a9c2 a9bd c3bc 1e3c 2627 9d3c 3ee2 3bbc
000002d0: 9f1b 0b3d 4b30 b73b ff4e cebc 31b6 153d
000002e0: c3ea 693d 8811 aa3d 2517 533d fc9e 993d
000002f0: 0b1b 983d 45ad c93c c6ec 893d 4414 8abb
00000300: cadd 78bd c6e7 f0bc 4c14 ccbc f97b 87bd
00000310: ef41 a83d aba0 a83d 38a1 5bbd 5338 833d
00000320: dd2d 61bd 6215 88bd ad35 783c 2734 933d
00000330: 0e07 8a3c 2f9c 52bb 5a0e 1abc 51ae ae3c
00000340: 7846 8fbc aa4b 21bd 75a8 cc3c 0fff 823d
00000350: 536c 623d e8e1 273c 1070 4f3d 00f9 afbd
00000360: 5dee 93bd fa4b 933d cdc3 863d 973e 9cbd
00000370: 0767 133d dd36 a23d 9e92 86bc 89e3 ac3d
00000380: 9c1c 8a3d 0f27 aabc a06f 24bd fd0f 993c
00000390: 7f41 b1bc c7d3 883d 304e b23d 54b2 873d
000003a0: 080d f53c 0f22 3cbc 815e 143c 5019 e5bc
000003b0: 2f7a 4abd 0933 e9bc 3b63 aabc aeca 86bd
000003c0: 92be 88bd 81f2 3bbd 6d8a 2bbc 1371 0a3b
000003d0: f4a3 ed3c 0d6c 82bd f77c 713d 0225 533b
000003e0: 34f9 52bd d8e0 3c3d dda2 093d 10e2 423d
000003f0: bb40 83bd 714c aabd 8945 e83c efe7 ef3b

output.bias f4 [8]
-5.2160835 -0.05543143 0.0047775456 -0.063345626 0.030349154 -5.147443 -0.04758106 0.062270146
00000000: 28ea a6c0 110c 63bd f58c 9c3b 5abb 81bd
00000010: ca9e f83c dab7 a4c0 5ce4 42bd fb0e 7f3d

exp_avg f4 [128, 16]
6e-45 6e-45 6e-45 6e-45 6e-45 6e-45 6e-45 6e-45
6e-45 6e-45 6e-45 6e-45 6e-45 6e-45 6e-45 6e-45
6e-45 6e-45 6e-45 6e-45 6e-45 6e-45 6e-45 6e-45
6e-45 6e-45 6e-45 6e-45 6e-45 6e-45 6e-45 6e-45
6e-45 6e-45 6e-45 6e-45 6e-45 6e-45 6e-45 6e-45
6e-45 6e-45 6e-45 6e-45 6e-45 6e-45 6e-45 6e-45
6e-45 6e-45 6e-45 6e-45 6e-45 6e-45 6e-45 6e-45
6e-45 6e-45 6e-45 6e-45 6e-45 6e-45 6e-45 6e-45
0.0 0.0 0.0 0.0 0.0 0.0 0.0 0.0
0.0 0.0 0.0 0.0 0.0 0.0 0.0 0.0
6e-45 6e-45 6e-45 6e-45 6e-45 6e-45 6e-45 6e-45
6e-45 6e-45 -6e-45 6e-45 6e-45 6e-45 6e-45 6e-45
0.0 0.0 0.0 0.0 0.0 0.0 0.0 0.0
0.0 0.0 0.0 0.0 0.0 0.0 0.0 0.0
6e-45 6e-45 6e-45 6e-45 6e-45 6e-45 6e-45 6e-45
6e-45 6e-45 6e-45 -6e-45 6e-45 6e-45 6e-45 6e-45
6e-45 6e-45 6e-45 6e-45 6e-45 6e-45 6e-45 6e-45
6e-45 6e-45 6e-45 6e-45 6e-45 6e-45 6e-45 6e-45
6e-45 6e-45 6e-45 6e-45 6e-45 6e-45 6e-45 6e-45
6e-45 6e-45 -6e-45 6e-45 6e-45 6e-45 6e-45 6e-45
6e-45 6e-45 6e-45 6e-45 6e-45 6e-45 6e-45 6e-45
6e-45 6e-45 -6e-45 6e-45 6e-45 6e-45 6e-45 6e-45
6e-45 6e-45 6e-45 6e-45 6e-45 6e-45 6e-45 6e-45
6e-45 6e-45 6e-45 6e-45 6e-45 6e-45 6e-45 6e-45
6e-45 6e-45 6e-45 6e-45 6e-45 6e-45 6e-45 6e-45
6e-45 6e-45 6e-45 6e-45 6e-45 6e-45 6e-45 6e-45
6e-45 6e-45 6e-45 6e-45 6e-45 6e-45 6e-45 6e-45
6e-45 6e-45 6e-45 6e-45 6e-45 6e-45 6e-45 6e-45
6e-45 6e-45 6e-45 6e-45 6e-45 6e-45 6e-45 6e-45
6e-45 6e-45 6e-45 6e-45 6e-45 -6e-45 6e-45 6e-45
6e-45 6e-45 6e-45 6e-45 6e-45 6e-45 6e-45 6e-45
6e-45 6e-45 0.0 0.0 6e-45 6e-45 6e-45 6e-45
00000000: 0400 0000 0400 0000 0400 0000 0400 0000
00000010: 0400 0000 0400 0000 0400 0000 0400 0000
00000020: 0400 0000 0400 0000 0400 0000 0400 0000
00000030: 0400 0000 0400 0000 0400 0000 0400 0000
00000040: 0400 0000 0400 0000 0400 0000 0400 0000
00000050: 0400 0000 0400 0000 0400 0000 0400 0000
00000060: 0400 0000 0400 0000 0400 0000 0400 0000
00000070: 0400 0000 0400 0000 0400 0000 0400 0000
00000080: 0400 0000 0400 0000 0400 0000 0400 0000
00000090: 0400 0000 0400 0000 0400 0000 0400 0000
000000a0: 0400 0000 0400 0000 0400 0000 0400 0000
000000b0: 0400 0000 0400 0000 0400 0000 0400 0000
000000c0: 0400 0000 0400 0000 0400 0000 0400 0000
000000d0: 0400 0000 0400 0000 0400 0000 0400 0000
000000e0: 0400 0000 0400 0000 0400 0000 0400 0000
000000f0: 0400 0000 0400 0000 0400 0000 0400 0000
00000100: 0000 0000 0000 0000 0000 0000 0000 0000
00000110: 0000 0000 0000 0000 0000 0000 0000 0000
00000120: 0000 0000 0000 0000 0000 0000 0000 0000
00000130: 0000 0000 0000 0000 0000 0000 0000 0000
00000140: 0400 0000 0400 0000 0400 0000 0400 0000
00000150: 0400 0000 0400 0000 0400 0000 0400 0000
00000160: 0400 0000 0400 0000 0400 0080 0400 0000
00000170: 0400 0000 0400 0000 0400 0000 0400 0000
00000180: 0000 0000 0000 0000 0000 0000 0000 0000
00000190: 0000 0000 0000 0000 0000 0000 0000 0000
000001a0: 0000 0000 0000 0000 0000 0000 0000 0000
000001b0: 0000 0000 0000 0000 0000 0000 0000 0000
000001c0: 0400 0000 0400 0000 0400 0000 0400 0000
000001d0: 0400 0000 0400 0000 0400 0000 0400 0000
000001e0: 0400 0000 0400 0000 0400 0000 0400 0080
000001f0: 0400 0000 0400 0000 0400 0000 0400 0000
00000200: 0400 0000 0400 0000 0400 0000 0400 0000
00000210: 0400 0000 0400 0000 0400 0000 0400 0000
00000220: 0400 0000 0400 0000 0400 0000 0400 0000
00000230: 0400 0000 0400 0000 0400 0000 0400 0000
00000240: 0400 0000 0400 0000 0400 0000 0400 0000
00000250: 0400 0000 0400 0000 0400 0000 0400 0000
00000260: 0400 0000 0400 0000 0400 0080 0400 0000
00000270: 0400 0000 0400 0000 0400 0000 0400 0000
00000280: 0400 0000 0400 0000 0400 0000 0400 0000
00000290: 0400 0000 0400 0000 0400 0000 0400 0000
000002a0: 0400 0000 0400 0000 0400 0080 0400 0000
000002b0: 0400 0000 0400 0000 0400 0000 0400 0000
000002c0: 0400 0000 0400 0000 0400 0000 0400 0000
000002d0: 0400 0000 0400 0000 0400 0000 0400 0000
000002e0: 0400 0000 0400 0000 0400 0000 0400 0000
000002f0: 0400 0000 0400 0000 0400 0000 0400 0000
00000300: 0400 0000 0400 0000 0400 0000 0400 0000
00000310: 0400 0000 0400 0000 0400 0000 0400 0000
00000320: 0400 0000 0400 0000 0400 0000 0400 0000
00000330: 0400 0000 0400 0000 0400 0000 0400 0000
00000340: 0400 0000 0400 0000 0400 0000 0400 0000
00000350: 0400 0000 0400 0000 0400 0000 0400 0000
00000360: 0400 0000 0400 0000 0400 0000 0400 0000
00000370: 0400 0000 0400 0000 0400 0000 0400 0000
00000380: 0400 0000 0400 0000 0400 0000 0400 0000
00000390: 0400 0000 0400 0000 0400 0000 0400 0000
000003a0: 0400 0000 0400 0000 0400 0000 0400 0000
000003b0: 0400 0000 0400 0080 0400 0000 0400 0000
000003c0: 0400 0000 0400 0000 0400 0000 0400 0000
000003d0: 0400 0000 0400 0000 0400 0000 0400 0000
000003e0: 0400 0000 0400 0000 0000 0000 0000 0000
000003f0: 0400 0000 0400 0000 0400 0000 0400 0000

exp_avg_sq f4 [128, 16]
7e-43 7e-43 7e-43 7e-43 7e-43 7e-43 7e-43 7e-43
7e-43 7e-43 7e-43 7e-43 7e-43 7e-43 7e-43 7e-43
7e-43 7e-43 7e-43 7e-43 7e-43 7e-43 7e-43 7e-43
7e-43 7e-43 7e-43 7e-43 7e-43 7e-43 7e-43 7e-43
7e-43 7e-43 7e-43 7e-43 7e-43 7e-43 7e-43 7e-43
7e-43 7e-43 7e-43 7e-43 7e-43 7e-43 7e-43 7e-43
7e-43 7e-43 7e-43 7e-43 7e-43 7e-43 7e-43 7e-43
7e-43 7e-43 7e-43 7e-43 7e-43 7e-43 7e-43 7e-43
0.0 0.0 0.0 0.0 0.0 0.0 0.0 0.0
0.0 0.0 0.0 0.0 0.0 0.0 0.0 0.0
7e-43 7e-43 7e-43 7e-43 7e-43 7e-43 7e-43 7e-43
7e-43 7e-43 7e-43 7e-43 7e-43 7e-43 7e-43 7e-43
0.0 0.0 0.0 0.0 0.0 0.0 0.0 0.0
0.0 0.0 0.0 0.0 0.0 0.0 0.0 0.0
7e-43 7e-43 7e-43 7e-43 7e-43 7e-43 7e-43 7e-43
7e-43 7e-43 7e-43 7e-43 7e-43 7e-43 7e-43 7e-43
7e-43 7e-43 7e-43 7e-43 7e-43 7e-43 7e-43 7e-43
7e-43 7e-43 7e-43 7e-43 7e-43 7e-43 7e-43 7e-43
7e-43 7e-43 7e-43 7e-43 7e-43 7e-43 7e-43 7e-43
7e-43 7e-43 7e-43 7e-43 7e-43 7e-43 7e-43 7e-43
7e-43 7e-43 7e-43 7e-43 7e-43 7e-43 7e-43 7e-43
7e-43 7e-43 7e-43 7e-43 7e-43 7e-43 7e-43 7e-43
7e-43 7e-43 7e-43 7e-43 7e-43 7e-43 7e-43 7e-43
7e-43 7e-43 7e-43 7e-43 7e-43 7e-43 7e-43 7e-43
7e-43 7e-43 7e-43 7e-43 7e-43 7e-43 7e-43 7e-43
7e-43 7e-43 7e-43 7e-43 7e-43 7e-43 7e-43 7e-43
7e-43 7e-43 7e-43 7e-43 7e-43 7e-43 7e-43 7e-43
7e-43 7e-43 7e-43 7e-43 7e-43 7e-43 7e-43 7e-43
7e-43 7e-43 7e-43 7e-43 7e-43 7e-43 7e-43 7e-43
7e-43 7e-43 7e-43 7e-43 7e-43 7e-43 7e-43 7e-43
7e-43 7e-43 7e-43 7e-43 7e-43 7e-43 7e-43 7e-43
7e-43 7e-43 0.0 0.0 7e-43 7e-43 7e-43 7e-43
00000000: f401 0000 f401 0000 f401 0000 f401 0000
00000010: f401 0000 f401 0000 f401 0000 f401 0000
00000020: f401 0000 f401 0000 f401 0000 f401 0000
00000030: f401 0000 f401 0000 f401 0000 f401 0000
00000040: f401 0000 f401 0000 f401 0000 f401 0000
00000050: f401 0000 f401 0000 f401 0000 f401 0000
00000060: f401 0000 f401 0000 f401 0000 f401 0000
00000070: f401 0000 f401 0000 f401 0000 f401 0000
00000080: f401 0000 f401 0000 f401 0000 f401 0000
00000090: f401 0000 f401 0000 f401 0000 f401 0000
000000a0: f401 0000 f401 0000 f401 0000 f401 0000
000000b0: f401 0000 f401 0000 f401 0000 f401 0000
000000c0: f401 0000 f401 0000 f401 0000 f401 0000
000000d0: f401 0000 f401 0000 f401 0000 f401 0000
000000e0: f401 0000 f401 0000 f401 0000 f401 0000
000000f0: f401 0000 f401 0000 f401 0000 f401 0000
00000100: 0000 0000 0000 0000 0000 0000 0000 0000
00000110: 0000 0000 0000 0000 0000 0000 0000 0000
00000120: 0000 0000 0000 0000 0000 0000 0000 0000
00000130: 0000 0000 0000 0000 0000 0000 0000 0000
00000140: f401 0000 f401 0000 f401 0000 f401 0000
00000150: f401 0000 f401 0000 f401 0000 f401 0000
00000160: f401 0000 f401 0000 f401 0000 f401 0000
00000170: f401 0000 f401 0000 f401 0000 f401 0000
00000180: 0000 0000 0000 0000 0000 0000 0000 0000
00000190: 0000 0000 0000 0000 0000 0000 0000 0000
000001a0: 0000 0000 0000 0000 0000 0000 0000 0000
000001b0: 0000 0000 0000 0000 0000 0000 0000 0000
000001c0: f401 0000 f401 0000 f401 0000 f401 0000
000001d0: f401 0000 f401 0000 f401 0000 f401 0000
000001e0: f401 0000 f401 0000 f401 0000 f401 0000
000001f0: f401 0000 f401 0000 f401 0000 f401 0000
00000200: f401 0000 f401 0000 f401 0000 f401 0000
00000210: f401 0000 f401 0000 f401 0000 f401 0000
00000220: f401 0000 f401 0000 f401 0000 f401 0000
00000230: f401 0000 f401 0000 f401 0000 f401 0000
00000240: f401 0000 f401 0000 f401 0000 f401 0000
00000250: f401 0000 f401 0000 f401 0000 f401 0000
00000260: f401 0000 f401 0000 f401 0000 f401 0000
00000270: f401 0000 f401 0000 f401 0000 f401 0000
00000280: f401 0000 f401 0000 f401 0000 f401 0000
00000290: f401 0000 f401 0000 f401 0000 f401 0000
000002a0: f401 0000 f401 0000 f401 0000 f401 0000
000002b0: f401 0000 f401 0000 f401 0000 f401 0000
000002c0: f401 0000 f401 0000 f401 0000 f401 0000
000002d0: f401 0000 f401 0000 f401 0000 f401 0000
000002e0: f401 0000 f401 0000 f401 0000 f401 0000
000002f0: f401 0000 f401 0000 f401 0000 f401 0000
00000300: f401 0000 f401 0000 f401 0000 f401 0000
00000310: f401 0000 f401 0000 f401 0000 f401 0000
00000320: f401 0000 f401 0000 f401 0000 f401 0000
00000330: f401 0000 f401 0000 f401 0000 f401 0000
00000340: f401 0000 f401 0000 f401 0000 f401 0000
00000350: f401 0000 f401 0000 f401 0000 f401 0000
00000360: f401 0000 f401 0000 f401 0000 f401 0000
00000370: f401 0000 f401 0000 f401 0000 f401 0000
00000380: f401 0000 f401 0000 f401 0000 f401 0000
00000390: f401 0000 f401 0000 f401 0000 f401 0000
000003a0: f401 0000 f401 0000 f401 0000 f401 0000
000003b0: f401 0000 f401 0000 f401 0000 f401 0000
000003c0: f401 0000 f401 0000 f401 0000 f401 0000
000003d0: f401 0000 f401 0000 f401 0000 f401 0000
000003e0: f401 0000 f401 0000 0000 0000 0000 0000
000003f0: f401 0000 f401 0000 f401 0000 f401 0000

exp_avg f4 [128]
6e-45 6e-45 6e-45 6e-45 0.0 6e-45 0.0 6e-45
6e-45 6e-45 6e-45 6e-45 6e-45 6e-45 6e-45 6e-45
-6e-45 6e-45 6e-45 0.0 6e-45 6e-45 0.0 6e-45
6e-45 6e-45 6e-45 6e-45 6e-45 6e-45 0.0 0.0
0.0 6e-45 6e-45 6e-45 6e-45 6e-45 6e-45 6e-45
-6e-45 6e-45 0.0 6e-45 0.0 6e-45 6e-45 6e-45
6e-45 6e-45 0.0 6e-45 6e-45 -6e-45 6e-45 6e-45
6e-45 6e-45 -6e-45 6e-45 6e-45 0.0 6e-45 6e-45
6e-45 6e-45 6e-45 0.0 6e-45 6e-45 6e-45 6e-45
6e-45 0.0 6e-45 6e-45 6e-45 6e-45 6e-45 6e-45
6e-45 0.0 6e-45 0.0 6e-45 0.0 6e-45 6e-45
6e-45 6e-45 6e-45 6e-45 6e-45 6e-45 6e-45 6e-45
6e-45 0.0 6e-45 0.0 6e-45 6e-45 6e-45 6e-45
6e-45 6e-45 6e-45 6e-45 0.0 0.0 6e-45 -6e-45
6e-45 6e-45 6e-45 6e-45 0.0 6e-45 6e-45 6e-45
6e-45 6e-45 0.0 6e-45 0.0 6e-45 6e-45 6e-45
00000000: 0400 0000 0400 0000 0400 0000 0400 0000
00000010: 0000 0000 0400 0000 0000 0000 0400 0000
00000020: 0400 0000 0400 0000 0400 0000 0400 0000
00000030: 0400 0000 0400 0000 0400 0000 0400 0000
00000040: 0400 0080 0400 0000 0400 0000 0000 0000
00000050: 0400 0000 0400 0000 0000 0000 0400 0000
00000060: 0400 0000 0400 0000 0400 0000 0400 0000
00000070: 0400 0000 0400 0000 0000 0000 0000 0000
00000080: 0000 0000 0400 0000 0400 0000 0400 0000
00000090: 0400 0000 0400 0000 0400 0000 0400 0000
000000a0: 0400 0080 0400 0000 0000 0000 0400 0000
000000b0: 0000 0000 0400 0000 0400 0000 0400 0000
000000c0: 0400 0000 0400 0000 0000 0000 0400 0000
000000d0: 0400 0000 0400 0080 0400 0000 0400 0000
000000e0: 0400 0000 0400 0000 0400 0080 0400 0000
000000f0: 0400 0000 0000 0000 0400 0000 0400 0000
00000100: 0400 0000 0400 0000 0400 0000 0000 0000
00000110: 0400 0000 0400 0000 0400 0000 0400 0000
00000120: 0400 0000 0000 0000 0400 0000 0400 0000
00000130: 0400 0000 0400 0000 0400 0000 0400 0000
00000140: 0400 0000 0000 0000 0400 0000 0000 0000
00000150: 0400 0000 0000 0000 0400 0000 0400 0000
00000160: 0400 0000 0400 0000 0400 0000 0400 0000
00000170: 0400 0000 0400 0000 0400 0000 0400 0000
00000180: 0400 0000 0000 0000 0400 0000 0000 0000
00000190: 0400 0000 0400 0000 0400 0000 0400 0000
000001a0: 0400 0000 0400 0000 0400 0000 0400 0000
000001b0: 0000 0000 0000 0000 0400 0000 0400 0080
000001c0: 0400 0000 0400 0000 0400 0000 0400 0000
000001d0: 0000 0000 0400 0000 0400 0000 0400 0000
000001e0: 0400 0000 0400 0000 0000 0000 0400 0000
000001f0: 0000 0000 0400 0000 0400 0000 0400 0000
